…
I0822 15:54:12.421286 13823 upgrade_proto.cpp:82] Successfully upgraded batch norm layers using deprecated params.
I0822 15:54:12.421883 13823 net.cpp:294] The NetState phase (0) differed from the phase (1) specified by a rule in layer data
I0822 15:54:12.422950 13823 net.cpp:51] Initializing net from parameters: 
name: "subMobileNet"
state {
  phase: TRAIN
  level: 0
  stage: ""
}
layer {
  name: "data"
  type: "HDF5Data"
  top: "data"
  top: "label"
  include {
    phase: TRAIN
  }
  hdf5_data_param {
    source: "/home/sxdz/data/landmark/beadwallet/samples/trainHDF5/112/hdf5-norm.txt"
    batch_size: 64
    shuffle: true
  }
}
layer {
  name: "conv1_new"
  type: "Convolution"
  bottom: "data"
  top: "conv1_new"
  param {
    lr_mult: 1
    decay_mult: 1
  }
  convolution_param {
    num_output: 16
    bias_term: false
    pad: 1
    kernel_size: 3
    stride: 2
    weight_filler {
      type: "msra"
    }
  }
}
layer {
  name: "conv1/bn_new"
  type: "BatchNorm"
  bottom: "conv1_new"
  top: "conv1_new"
  param {
    lr_mult: 0
    decay_mult: 0
  }
  param {
    lr_mult: 0
    decay_mult: 0
  }
  param {
    lr_mult: 0
    decay_mult: 0
  }
}
layer {
  name: "conv1/scale_new"
  type: "Scale"
  bottom: "conv1_new"
  top: "conv1_new"
  scale_param {
    filler {
      value: 1
    }
    bias_term: true
    bias_filler {
      value: 0
    }
  }
}
layer {
  name: "relu1_new"
  type: "ReLU"
  bottom: "conv1_new"
  top: "conv1_new"
}
layer {
  name: "conv1_1/in/pw_new"
  type: "Convolution"
  bottom: "conv1_new"
  top: "conv1_1/in/pw_new"
  param {
    lr_mult: 1
    decay_mult: 1
  }
  convolution_param {
    num_output: 64
    bias_term: false
    pad: 0
    kernel_size: 1
    stride: 1
    weight_filler {
      type: "msra"
    }
    engine: CAFFE
  }
}
layer {
  name: "conv1_1/in/pw/bn_new"
  type: "BatchNorm"
  bottom: "conv1_1/in/pw_new"
  top: "conv1_1/in/pw_new"
  param {
    lr_mult: 0
    decay_mult: 0
  }
  param {
    lr_mult: 0
    decay_mult: 0
  }
  param {
    lr_mult: 0
    decay_mult: 0
  }
}
layer {
  name: "conv1_1/in/pw/scale_new"
  type: "Scale"
  bottom: "conv1_1/in/pw_new"
  top: "conv1_1/in/pw_new"
  scale_param {
    filler {
      value: 1
    }
    bias_term: true
    bias_filler {
      value: 0
    }
  }
}
layer {
  name: "relu1_1/in/pw_new"
  type: "ReLU"
  bottom: "conv1_1/in/pw_new"
  top: "conv1_1/in/pw_new"
}
layer {
  name: "conv1_1/dw_new"
  type: "ConvolutionDepthwise"
  bottom: "conv1_1/in/pw_new"
  top: "conv1_1/dw_new"
  param {
    lr_mult: 1
    decay_mult: 0
  }
  convolution_param {
    num_output: 64
    bias_term: false
    pad: 1
    kernel_size: 3
    stride: 2
    weight_filler {
      type: "msra"
    }
    engine: CAFFE
  }
}
layer {
  name: "conv1_1/dw/bn_new"
  type: "BatchNorm"
  bottom: "conv1_1/dw_new"
  top: "conv1_1/dw_new"
  param {
    lr_mult: 0
    decay_mult: 0
  }
  param {
    lr_mult: 0
    decay_mult: 0
  }
  param {
    lr_mult: 0
    decay_mult: 0
  }
}
layer {
  name: "conv1_1/dw/scale_new"
  type: "Scale"
  bottom: "conv1_1/dw_new"
  top: "conv1_1/dw_new"
  scale_param {
    filler {
      value: 1
    }
    bias_term: true
    bias_filler {
      value: 0
    }
  }
}
layer {
  name: "relu1_1/dw_new"
  type: "ReLU"
  bottom: "conv1_1/dw_new"
  top: "conv1_1/dw_new"
}
layer {
  name: "conv1_1/out/pw_new"
  type: "Convolution"
  bottom: "conv1_1/dw_new"
  top: "conv1_1/out/pw_new"
  param {
    lr_mult: 1
    decay_mult: 1
  }
  convolution_param {
    num_output: 24
    bias_term: false
    pad: 0
    kernel_size: 1
    stride: 1
    weight_filler {
      type: "msra"
    }
    engine: CAFFE
  }
}
layer {
  name: "conv1_1/out/pw/bn_new"
  type: "BatchNorm"
  bottom: "conv1_1/out/pw_new"
  top: "conv1_1/out/pw_new"
  param {
    lr_mult: 0
    decay_mult: 0
  }
  param {
    lr_mult: 0
    decay_mult: 0
  }
  param {
    lr_mult: 0
    decay_mult: 0
  }
}
layer {
  name: "conv1_1/out/pw/scale_new"
  type: "Scale"
  bottom: "conv1_1/out/pw_new"
  top: "conv1_1/out/pw_new"
  scale_param {
    filler {
      value: 1
    }
    bias_term: true
    bias_filler {
      value: 0
    }
  }
}
layer {
  name: "conv1_2/in/pw_new"
  type: "Convolution"
  bottom: "conv1_1/out/pw_new"
  top: "conv1_2/in/pw_new"
  param {
    lr_mult: 1
    decay_mult: 1
  }
  convolution_param {
    num_output: 144
    bias_term: false
    pad: 0
    kernel_size: 1
    stride: 1
    weight_filler {
      type: "msra"
    }
    engine: CAFFE
  }
}
layer {
  name: "conv1_2/in/pw/bn_new"
  type: "BatchNorm"
  bottom: "conv1_2/in/pw_new"
  top: "conv1_2/in/pw_new"
  param {
    lr_mult: 0
    decay_mult: 0
  }
  param {
    lr_mult: 0
    decay_mult: 0
  }
  param {
    lr_mult: 0
    decay_mult: 0
  }
}
layer {
  name: "conv1_2/in/pw/scale_new"
  type: "Scale"
  bottom: "conv1_2/in/pw_new"
  top: "conv1_2/in/pw_new"
  scale_param {
    filler {
      value: 1
    }
    bias_term: true
    bias_filler {
      value: 0
    }
  }
}
layer {
  name: "relu1_2/in/pw_new"
  type: "ReLU"
  bottom: "conv1_2/in/pw_new"
  top: "conv1_2/in/pw_new"
}
layer {
  name: "conv1_2/dw_new"
  type: "ConvolutionDepthwise"
  bottom: "conv1_2/in/pw_new"
  top: "conv1_2/dw_new"
  param {
    lr_mult: 1
    decay_mult: 0
  }
  convolution_param {
    num_output: 144
    bias_term: false
    pad: 1
    kernel_size: 3
    stride: 1
    weight_filler {
      type: "msra"
    }
    engine: CAFFE
  }
}
layer {
  name: "conv1_2/dw/bn_new"
  type: "BatchNorm"
  bottom: "conv1_2/dw_new"
  top: "conv1_2/dw_new"
  param {
    lr_mult: 0
    decay_mult: 0
  }
  param {
    lr_mult: 0
    decay_mult: 0
  }
  param {
    lr_mult: 0
    decay_mult: 0
  }
}
layer {
  name: "conv1_2/dw/scale_new"
  type: "Scale"
  bottom: "conv1_2/dw_new"
  top: "conv1_2/dw_new"
  scale_param {
    filler {
      value: 1
    }
    bias_term: true
    bias_filler {
      value: 0
    }
  }
}
layer {
  name: "relu1_2/dw_new"
  type: "ReLU"
  bottom: "conv1_2/dw_new"
  top: "conv1_2/dw_new"
}
layer {
  name: "conv1_2/out/pw_new"
  type: "Convolution"
  bottom: "conv1_2/dw_new"
  top: "conv1_2/out/pw_new"
  param {
    lr_mult: 1
    decay_mult: 1
  }
  convolution_param {
    num_output: 24
    bias_term: false
    pad: 0
    kernel_size: 1
    stride: 1
    weight_filler {
      type: "msra"
    }
    engine: CAFFE
  }
}
layer {
  name: "conv1_2/out/pw/bn_new"
  type: "BatchNorm"
  bottom: "conv1_2/out/pw_new"
  top: "conv1_2/out/pw_new"
  param {
    lr_mult: 0
    decay_mult: 0
  }
  param {
    lr_mult: 0
    decay_mult: 0
  }
  param {
    lr_mult: 0
    decay_mult: 0
  }
}
layer {
  name: "conv1_2/out/pw/scale_new"
  type: "Scale"
  bottom: "conv1_2/out/pw_new"
  top: "conv1_2/out/pw_new"
  scale_param {
    filler {
      value: 1
    }
    bias_term: true
    bias_filler {
      value: 0
    }
  }
}
layer {
  name: "fuse_conv1_2"
  type: "Eltwise"
  bottom: "conv1_1/out/pw_new"
  bottom: "conv1_2/out/pw_new"
  top: "fuse_conv1_2"
  eltwise_param {
    operation: SUM
  }
}
layer {
  name: "conv2_1/in/pw_new"
  type: "Convolution"
  bottom: "fuse_conv1_2"
  top: "conv2_1/in/pw_new"
  param {
    lr_mult: 1
    decay_mult: 1
  }
  convolution_param {
    num_output: 144
    bias_term: false
    pad: 0
    kernel_size: 1
    stride: 1
    weight_filler {
      type: "msra"
    }
    engine: CAFFE
  }
}
layer {
  name: "conv2_1/in/pw/bn_new"
  type: "BatchNorm"
  bottom: "conv2_1/in/pw_new"
  top: "conv2_1/in/pw_new"
  param {
    lr_mult: 0
    decay_mult: 0
  }
  param {
    lr_mult: 0
    decay_mult: 0
  }
  param {
    lr_mult: 0
    decay_mult: 0
  }
}
layer {
  name: "conv2_1/in/pw/scale_new"
  type: "Scale"
  bottom: "conv2_1/in/pw_new"
  top: "conv2_1/in/pw_new"
  scale_param {
    filler {
      value: 1
    }
    bias_term: true
    bias_filler {
      value: 0
    }
  }
}
layer {
  name: "relu2_1/in/pw_new"
  type: "ReLU"
  bottom: "conv2_1/in/pw_new"
  top: "conv2_1/in/pw_new"
}
layer {
  name: "conv2_1/dw_new"
  type: "ConvolutionDepthwise"
  bottom: "conv2_1/in/pw_new"
  top: "conv2_1/dw_new"
  param {
    lr_mult: 1
    decay_mult: 0
  }
  convolution_param {
    num_output: 144
    bias_term: false
    pad: 1
    kernel_size: 3
    stride: 2
    weight_filler {
      type: "msra"
    }
    engine: CAFFE
  }
}
layer {
  name: "conv2_1/dw/bn_new"
  type: "BatchNorm"
  bottom: "conv2_1/dw_new"
  top: "conv2_1/dw_new"
  param {
    lr_mult: 0
    decay_mult: 0
  }
  param {
    lr_mult: 0
    decay_mult: 0
  }
  param {
    lr_mult: 0
    decay_mult: 0
  }
}
layer {
  name: "conv2_1/dw/scale_new"
  type: "Scale"
  bottom: "conv2_1/dw_new"
  top: "conv2_1/dw_new"
  scale_param {
    filler {
      value: 1
    }
    bias_term: true
    bias_filler {
      value: 0
    }
  }
}
layer {
  name: "relu2_1/dw_new"
  type: "ReLU"
  bottom: "conv2_1/dw_new"
  top: "conv2_1/dw_new"
}
layer {
  name: "conv2_1/out/pw_new"
  type: "Convolution"
  bottom: "conv2_1/dw_new"
  top: "conv2_1/out/pw_new"
  param {
    lr_mult: 1
    decay_mult: 1
  }
  convolution_param {
    num_output: 32
    bias_term: false
    pad: 0
    kernel_size: 1
    stride: 1
    weight_filler {
      type: "msra"
    }
    engine: CAFFE
  }
}
layer {
  name: "conv2_1/out/pw/bn_new"
  type: "BatchNorm"
  bottom: "conv2_1/out/pw_new"
  top: "conv2_1/out/pw_new"
  param {
    lr_mult: 0
    decay_mult: 0
  }
  param {
    lr_mult: 0
    decay_mult: 0
  }
  param {
    lr_mult: 0
    decay_mult: 0
  }
}
layer {
  name: "conv2_1/out/pw/scale_new"
  type: "Scale"
  bottom: "conv2_1/out/pw_new"
  top: "conv2_1/out/pw_new"
  scale_param {
    filler {
      value: 1
    }
    bias_term: true
    bias_filler {
      value: 0
    }
  }
}
layer {
  name: "conv2_2/in/pw_new"
  type: "Convolution"
  bottom: "conv2_1/out/pw_new"
  top: "conv2_2/in/pw_new"
  param {
    lr_mult: 1
    decay_mult: 1
  }
  convolution_param {
    num_output: 192
    bias_term: false
    pad: 0
    kernel_size: 1
    stride: 1
    weight_filler {
      type: "msra"
    }
    engine: CAFFE
  }
}
layer {
  name: "conv2_2/in/pw/bn_new"
  type: "BatchNorm"
  bottom: "conv2_2/in/pw_new"
  top: "conv2_2/in/pw_new"
  param {
    lr_mult: 0
    decay_mult: 0
  }
  param {
    lr_mult: 0
    decay_mult: 0
  }
  param {
    lr_mult: 0
    decay_mult: 0
  }
}
layer {
  name: "conv2_2/in/pw/scale_new"
  type: "Scale"
  bottom: "conv2_2/in/pw_new"
  top: "conv2_2/in/pw_new"
  scale_param {
    filler {
      value: 1
    }
    bias_term: true
    bias_filler {
      value: 0
    }
  }
}
layer {
  name: "relu2_2/in/pw_new"
  type: "ReLU"
  bottom: "conv2_2/in/pw_new"
  top: "conv2_2/in/pw_new"
}
layer {
  name: "conv2_2/dw_new"
  type: "ConvolutionDepthwise"
  bottom: "conv2_2/in/pw_new"
  top: "conv2_2/dw_new"
  param {
    lr_mult: 1
    decay_mult: 0
  }
  convolution_param {
    num_output: 192
    bias_term: false
    pad: 1
    kernel_size: 3
    stride: 1
    weight_filler {
      type: "msra"
    }
    engine: CAFFE
  }
}
layer {
  name: "conv2_2/dw/bn_new"
  type: "BatchNorm"
  bottom: "conv2_2/dw_new"
  top: "conv2_2/dw_new"
  param {
    lr_mult: 0
    decay_mult: 0
  }
  param {
    lr_mult: 0
    decay_mult: 0
  }
  param {
    lr_mult: 0
    decay_mult: 0
  }
}
layer {
  name: "conv2_2/dw/scale_new"
  type: "Scale"
  bottom: "conv2_2/dw_new"
  top: "conv2_2/dw_new"
  scale_param {
    filler {
      value: 1
    }
    bias_term: true
    bias_filler {
      value: 0
    }
  }
}
layer {
  name: "relu2_2/dw_new"
  type: "ReLU"
  bottom: "conv2_2/dw_new"
  top: "conv2_2/dw_new"
}
layer {
  name: "conv2_2/out/pw_new"
  type: "Convolution"
  bottom: "conv2_2/dw_new"
  top: "conv2_2/out/pw_new"
  param {
    lr_mult: 1
    decay_mult: 1
  }
  convolution_param {
    num_output: 32
    bias_term: false
    pad: 0
    kernel_size: 1
    stride: 1
    weight_filler {
      type: "msra"
    }
    engine: CAFFE
  }
}
layer {
  name: "conv2_2/out/pw/bn_new"
  type: "BatchNorm"
  bottom: "conv2_2/out/pw_new"
  top: "conv2_2/out/pw_new"
  param {
    lr_mult: 0
    decay_mult: 0
  }
  param {
    lr_mult: 0
    decay_mult: 0
  }
  param {
    lr_mult: 0
    decay_mult: 0
  }
}
layer {
  name: "conv2_2/out/pw/scale_new"
  type: "Scale"
  bottom: "conv2_2/out/pw_new"
  top: "conv2_2/out/pw_new"
  scale_param {
    filler {
      value: 1
    }
    bias_term: true
    bias_filler {
      value: 0
    }
  }
}
layer {
  name: "fuse_conv2_2"
  type: "Eltwise"
  bottom: "conv2_1/out/pw_new"
  bottom: "conv2_2/out/pw_new"
  top: "fuse_conv2_2"
  eltwise_param {
    operation: SUM
  }
}
layer {
  name: "conv3_1/in/pw_new"
  type: "Convolution"
  bottom: "fuse_conv2_2"
  top: "conv3_1/in/pw_new"
  param {
    lr_mult: 1
    decay_mult: 1
  }
  convolution_param {
    num_output: 192
    bias_term: false
    pad: 0
    kernel_size: 1
    stride: 1
    weight_filler {
      type: "msra"
    }
    engine: CAFFE
  }
}
layer {
  name: "conv3_1/in/pw/bn_new"
  type: "BatchNorm"
  bottom: "conv3_1/in/pw_new"
  top: "conv3_1/in/pw_new"
  param {
    lr_mult: 0
    decay_mult: 0
  }
  param {
    lr_mult: 0
    decay_mult: 0
  }
  param {
    lr_mult: 0
    decay_mult: 0
  }
}
layer {
  name: "conv3_1/in/pw/scale_new"
  type: "Scale"
  bottom: "conv3_1/in/pw_new"
  top: "conv3_1/in/pw_new"
  scale_param {
    filler {
      value: 1
    }
    bias_term: true
    bias_filler {
      value: 0
    }
  }
}
layer {
  name: "relu3_1/in/pw_new"
  type: "ReLU"
  bottom: "conv3_1/in/pw_new"
  top: "conv3_1/in/pw_new"
}
layer {
  name: "conv3_1/dw_new"
  type: "ConvolutionDepthwise"
  bottom: "conv3_1/in/pw_new"
  top: "conv3_1/dw_new"
  param {
    lr_mult: 1
    decay_mult: 0
  }
  convolution_param {
    num_output: 192
    bias_term: false
    pad: 1
    kernel_size: 3
    stride: 2
    weight_filler {
      type: "msra"
    }
    engine: CAFFE
  }
}
layer {
  name: "conv3_1/dw/bn_new"
  type: "BatchNorm"
  bottom: "conv3_1/dw_new"
  top: "conv3_1/dw_new"
  param {
    lr_mult: 0
    decay_mult: 0
  }
  param {
    lr_mult: 0
    decay_mult: 0
  }
  param {
    lr_mult: 0
    decay_mult: 0
  }
}
layer {
  name: "conv3_1/dw/scale_new"
  type: "Scale"
  bottom: "conv3_1/dw_new"
  top: "conv3_1/dw_new"
  scale_param {
    filler {
      value: 1
    }
    bias_term: true
    bias_filler {
      value: 0
    }
  }
}
layer {
  name: "relu3_1/dw_new"
  type: "ReLU"
  bottom: "conv3_1/dw_new"
  top: "conv3_1/dw_new"
}
layer {
  name: "conv3_1/out/pw_new"
  type: "Convolution"
  bottom: "conv3_1/dw_new"
  top: "conv3_1/out/pw_new"
  param {
    lr_mult: 1
    decay_mult: 1
  }
  convolution_param {
    num_output: 64
    bias_term: false
    pad: 0
    kernel_size: 1
    stride: 1
    weight_filler {
      type: "msra"
    }
    engine: CAFFE
  }
}
layer {
  name: "conv3_1/out/pw/bn_new"
  type: "BatchNorm"
  bottom: "conv3_1/out/pw_new"
  top: "conv3_1/out/pw_new"
  param {
    lr_mult: 0
    decay_mult: 0
  }
  param {
    lr_mult: 0
    decay_mult: 0
  }
  param {
    lr_mult: 0
    decay_mult: 0
  }
}
layer {
  name: "conv3_1/out/pw/scale_new"
  type: "Scale"
  bottom: "conv3_1/out/pw_new"
  top: "conv3_1/out/pw_new"
  scale_param {
    filler {
      value: 1
    }
    bias_term: true
    bias_filler {
      value: 0
    }
  }
}
layer {
  name: "conv3_2/in/pw_new"
  type: "Convolution"
  bottom: "conv3_1/out/pw_new"
  top: "conv3_2/in/pw_new"
  param {
    lr_mult: 1
    decay_mult: 1
  }
  convolution_param {
    num_output: 192
    bias_term: false
    pad: 0
    kernel_size: 1
    stride: 1
    weight_filler {
      type: "msra"
    }
    engine: CAFFE
  }
}
layer {
  name: "conv3_2/in/pw/bn_new"
  type: "BatchNorm"
  bottom: "conv3_2/in/pw_new"
  top: "conv3_2/in/pw_new"
  param {
    lr_mult: 0
    decay_mult: 0
  }
  param {
    lr_mult: 0
    decay_mult: 0
  }
  param {
    lr_mult: 0
    decay_mult: 0
  }
}
layer {
  name: "conv3_2/in/pw/scale_new"
  type: "Scale"
  bottom: "conv3_2/in/pw_new"
  top: "conv3_2/in/pw_new"
  scale_param {
    filler {
      value: 1
    }
    bias_term: true
    bias_filler {
      value: 0
    }
  }
}
layer {
  name: "relu3_2/in/pw_new"
  type: "ReLU"
  bottom: "conv3_2/in/pw_new"
  top: "conv3_2/in/pw_new"
}
layer {
  name: "conv3_2/dw_new"
  type: "ConvolutionDepthwise"
  bottom: "conv3_2/in/pw_new"
  top: "conv3_2/dw_new"
  param {
    lr_mult: 1
    decay_mult: 0
  }
  convolution_param {
    num_output: 192
    bias_term: false
    pad: 1
    kernel_size: 3
    stride: 1
    weight_filler {
      type: "msra"
    }
    engine: CAFFE
  }
}
layer {
  name: "conv3_2/dw/bn_new"
  type: "BatchNorm"
  bottom: "conv3_2/dw_new"
  top: "conv3_2/dw_new"
  param {
    lr_mult: 0
    decay_mult: 0
  }
  param {
    lr_mult: 0
    decay_mult: 0
  }
  param {
    lr_mult: 0
    decay_mult: 0
  }
}
layer {
  name: "conv3_2/dw/scale_new"
  type: "Scale"
  bottom: "conv3_2/dw_new"
  top: "conv3_2/dw_new"
  scale_param {
    filler {
      value: 1
    }
    bias_term: true
    bias_filler {
      value: 0
    }
  }
}
layer {
  name: "relu3_2/dw_new"
  type: "ReLU"
  bottom: "conv3_2/dw_new"
  top: "conv3_2/dw_new"
}
layer {
  name: "conv3_2/out/pw_new"
  type: "Convolution"
  bottom: "conv3_2/dw_new"
  top: "conv3_2/out/pw_new"
  param {
    lr_mult: 1
    decay_mult: 1
  }
  convolution_param {
    num_output: 64
    bias_term: false
    pad: 0
    kernel_size: 1
    stride: 1
    weight_filler {
      type: "msra"
    }
    engine: CAFFE
  }
}
layer {
  name: "conv3_2/out/pw/bn_new"
  type: "BatchNorm"
  bottom: "conv3_2/out/pw_new"
  top: "conv3_2/out/pw_new"
  param {
    lr_mult: 0
    decay_mult: 0
  }
  param {
    lr_mult: 0
    decay_mult: 0
  }
  param {
    lr_mult: 0
    decay_mult: 0
  }
}
layer {
  name: "conv3_2/out/pw/scale_new"
  type: "Scale"
  bottom: "conv3_2/out/pw_new"
  top: "conv3_2/out/pw_new"
  scale_param {
    filler {
      value: 1
    }
    bias_term: true
    bias_filler {
      value: 0
    }
  }
}
layer {
  name: "fuse_conv3_2"
  type: "Eltwise"
  bottom: "conv3_1/out/pw_new"
  bottom: "conv3_2/out/pw_new"
  top: "fuse_conv3_2"
  eltwise_param {
    operation: SUM
  }
}
layer {
  name: "fc1"
  type: "InnerProduct"
  bottom: "fuse_conv3_2"
  top: "fc1"
  param {
    lr_mult: 1
    decay_mult: 1
  }
  param {
    lr_mult: 2
    decay_mult: 1
  }
  inner_product_param {
    num_output: 512
    weight_filler {
      type: "gaussian"
      std: 0.01
    }
    bias_filler {
      type: "constant"
      value: 0
    }
  }
}
layer {
  name: "relu_fc1"
  type: "ReLU"
  bottom: "fc1"
  top: "fc1"
}
layer {
  name: "drop_fc1"
  type: "Dropout"
  bottom: "fc1"
  top: "fc1"
  dropout_param {
    dropout_ratio: 0.3
  }
}
layer {
  name: "landmark_pred"
  type: "InnerProduct"
  bottom: "fc1"
  top: "landmark_pred"
  param {
    lr_mult: 1
    decay_mult: 1
  }
  param {
    lr_mult: 2
    decay_mult: 1
  }
  inner_product_param {
    num_output: 254
    weight_filler {
      type: "gaussian"
      std: 0.01
    }
    bias_filler {
      type: "constant"
      value: 0
    }
  }
}
layer {
  name: "landmark_loss"
  type: "EuclideanLoss"
  bottom: "landmark_pred"
  bottom: "label"
  top: "landmark_loss"
  loss_weight: 1
}
I0822 15:54:12.423470 13823 layer_factory.hpp:77] Creating layer data
I0822 15:54:12.423502 13823 net.cpp:84] Creating Layer data
I0822 15:54:12.423518 13823 net.cpp:380] data -> data
I0822 15:54:12.423552 13823 net.cpp:380] data -> label
I0822 15:54:12.423570 13823 hdf5_data_layer.cpp:80] Loading list of HDF5 filenames from: /home/sxdz/data/landmark/beadwallet/samples/trainHDF5/112/hdf5-norm.txt
I0822 15:54:12.441712 13823 hdf5_data_layer.cpp:94] Number of HDF5 files: 18260
I0822 15:54:12.501541 13823 hdf5.cpp:32] Datatype class: H5T_FLOAT
I0822 15:54:12.512702 13823 net.cpp:122] Setting up data
I0822 15:54:12.512742 13823 net.cpp:129] Top shape: 64 3 112 112 (2408448)
I0822 15:54:12.512753 13823 net.cpp:129] Top shape: 64 254 (16256)
I0822 15:54:12.512759 13823 net.cpp:137] Memory required for data: 9698816
I0822 15:54:12.512773 13823 layer_factory.hpp:77] Creating layer conv1_new
I0822 15:54:12.512809 13823 net.cpp:84] Creating Layer conv1_new
I0822 15:54:12.512823 13823 net.cpp:406] conv1_new <- data
I0822 15:54:12.512846 13823 net.cpp:380] conv1_new -> conv1_new
I0822 15:54:12.513897 13823 net.cpp:122] Setting up conv1_new
I0822 15:54:12.513921 13823 net.cpp:129] Top shape: 64 16 56 56 (3211264)
I0822 15:54:12.513927 13823 net.cpp:137] Memory required for data: 22543872
I0822 15:54:12.513952 13823 layer_factory.hpp:77] Creating layer conv1/bn_new
I0822 15:54:12.513972 13823 net.cpp:84] Creating Layer conv1/bn_new
I0822 15:54:12.513983 13823 net.cpp:406] conv1/bn_new <- conv1_new
I0822 15:54:12.513994 13823 net.cpp:367] conv1/bn_new -> conv1_new (in-place)
I0822 15:54:12.514343 13823 net.cpp:122] Setting up conv1/bn_new
I0822 15:54:12.514359 13823 net.cpp:129] Top shape: 64 16 56 56 (3211264)
I0822 15:54:12.514365 13823 net.cpp:137] Memory required for data: 35388928
I0822 15:54:12.514387 13823 layer_factory.hpp:77] Creating layer conv1/scale_new
I0822 15:54:12.514402 13823 net.cpp:84] Creating Layer conv1/scale_new
I0822 15:54:12.514408 13823 net.cpp:406] conv1/scale_new <- conv1_new
I0822 15:54:12.514418 13823 net.cpp:367] conv1/scale_new -> conv1_new (in-place)
I0822 15:54:12.514492 13823 layer_factory.hpp:77] Creating layer conv1/scale_new
I0822 15:54:12.514714 13823 net.cpp:122] Setting up conv1/scale_new
I0822 15:54:12.514730 13823 net.cpp:129] Top shape: 64 16 56 56 (3211264)
I0822 15:54:12.514736 13823 net.cpp:137] Memory required for data: 48233984
I0822 15:54:12.514752 13823 layer_factory.hpp:77] Creating layer relu1_new
I0822 15:54:12.514767 13823 net.cpp:84] Creating Layer relu1_new
I0822 15:54:12.514773 13823 net.cpp:406] relu1_new <- conv1_new
I0822 15:54:12.514783 13823 net.cpp:367] relu1_new -> conv1_new (in-place)
I0822 15:54:12.514794 13823 net.cpp:122] Setting up relu1_new
I0822 15:54:12.514803 13823 net.cpp:129] Top shape: 64 16 56 56 (3211264)
I0822 15:54:12.514809 13823 net.cpp:137] Memory required for data: 61079040
I0822 15:54:12.514816 13823 layer_factory.hpp:77] Creating layer conv1_1/in/pw_new
I0822 15:54:12.514830 13823 net.cpp:84] Creating Layer conv1_1/in/pw_new
I0822 15:54:12.514842 13823 net.cpp:406] conv1_1/in/pw_new <- conv1_new
I0822 15:54:12.514853 13823 net.cpp:380] conv1_1/in/pw_new -> conv1_1/in/pw_new
I0822 15:54:12.515197 13823 net.cpp:122] Setting up conv1_1/in/pw_new
I0822 15:54:12.515213 13823 net.cpp:129] Top shape: 64 64 56 56 (12845056)
I0822 15:54:12.515220 13823 net.cpp:137] Memory required for data: 112459264
I0822 15:54:12.515229 13823 layer_factory.hpp:77] Creating layer conv1_1/in/pw/bn_new
I0822 15:54:12.515242 13823 net.cpp:84] Creating Layer conv1_1/in/pw/bn_new
I0822 15:54:12.515249 13823 net.cpp:406] conv1_1/in/pw/bn_new <- conv1_1/in/pw_new
I0822 15:54:12.515259 13823 net.cpp:367] conv1_1/in/pw/bn_new -> conv1_1/in/pw_new (in-place)
I0822 15:54:12.515604 13823 net.cpp:122] Setting up conv1_1/in/pw/bn_new
I0822 15:54:12.515617 13823 net.cpp:129] Top shape: 64 64 56 56 (12845056)
I0822 15:54:12.515625 13823 net.cpp:137] Memory required for data: 163839488
I0822 15:54:12.515643 13823 layer_factory.hpp:77] Creating layer conv1_1/in/pw/scale_new
I0822 15:54:12.515656 13823 net.cpp:84] Creating Layer conv1_1/in/pw/scale_new
I0822 15:54:12.515663 13823 net.cpp:406] conv1_1/in/pw/scale_new <- conv1_1/in/pw_new
I0822 15:54:12.515673 13823 net.cpp:367] conv1_1/in/pw/scale_new -> conv1_1/in/pw_new (in-place)
I0822 15:54:12.515738 13823 layer_factory.hpp:77] Creating layer conv1_1/in/pw/scale_new
I0822 15:54:12.515954 13823 net.cpp:122] Setting up conv1_1/in/pw/scale_new
I0822 15:54:12.515969 13823 net.cpp:129] Top shape: 64 64 56 56 (12845056)
I0822 15:54:12.515975 13823 net.cpp:137] Memory required for data: 215219712
I0822 15:54:12.515987 13823 layer_factory.hpp:77] Creating layer relu1_1/in/pw_new
I0822 15:54:12.516000 13823 net.cpp:84] Creating Layer relu1_1/in/pw_new
I0822 15:54:12.516007 13823 net.cpp:406] relu1_1/in/pw_new <- conv1_1/in/pw_new
I0822 15:54:12.516016 13823 net.cpp:367] relu1_1/in/pw_new -> conv1_1/in/pw_new (in-place)
I0822 15:54:12.516027 13823 net.cpp:122] Setting up relu1_1/in/pw_new
I0822 15:54:12.516036 13823 net.cpp:129] Top shape: 64 64 56 56 (12845056)
I0822 15:54:12.516042 13823 net.cpp:137] Memory required for data: 266599936
I0822 15:54:12.516048 13823 layer_factory.hpp:77] Creating layer conv1_1/dw_new
I0822 15:54:12.516062 13823 net.cpp:84] Creating Layer conv1_1/dw_new
I0822 15:54:12.516072 13823 net.cpp:406] conv1_1/dw_new <- conv1_1/in/pw_new
I0822 15:54:12.516083 13823 net.cpp:380] conv1_1/dw_new -> conv1_1/dw_new
I0822 15:54:12.516374 13823 net.cpp:122] Setting up conv1_1/dw_new
I0822 15:54:12.516399 13823 net.cpp:129] Top shape: 64 64 28 28 (3211264)
I0822 15:54:12.516407 13823 net.cpp:137] Memory required for data: 279444992
I0822 15:54:12.516417 13823 layer_factory.hpp:77] Creating layer conv1_1/dw/bn_new
I0822 15:54:12.516430 13823 net.cpp:84] Creating Layer conv1_1/dw/bn_new
I0822 15:54:12.516438 13823 net.cpp:406] conv1_1/dw/bn_new <- conv1_1/dw_new
I0822 15:54:12.516448 13823 net.cpp:367] conv1_1/dw/bn_new -> conv1_1/dw_new (in-place)
I0822 15:54:12.516795 13823 net.cpp:122] Setting up conv1_1/dw/bn_new
I0822 15:54:12.516809 13823 net.cpp:129] Top shape: 64 64 28 28 (3211264)
I0822 15:54:12.516815 13823 net.cpp:137] Memory required for data: 292290048
I0822 15:54:12.516829 13823 layer_factory.hpp:77] Creating layer conv1_1/dw/scale_new
I0822 15:54:12.516839 13823 net.cpp:84] Creating Layer conv1_1/dw/scale_new
I0822 15:54:12.516846 13823 net.cpp:406] conv1_1/dw/scale_new <- conv1_1/dw_new
I0822 15:54:12.516855 13823 net.cpp:367] conv1_1/dw/scale_new -> conv1_1/dw_new (in-place)
I0822 15:54:12.516916 13823 layer_factory.hpp:77] Creating layer conv1_1/dw/scale_new
I0822 15:54:12.517096 13823 net.cpp:122] Setting up conv1_1/dw/scale_new
I0822 15:54:12.517110 13823 net.cpp:129] Top shape: 64 64 28 28 (3211264)
I0822 15:54:12.517117 13823 net.cpp:137] Memory required for data: 305135104
I0822 15:54:12.517134 13823 layer_factory.hpp:77] Creating layer relu1_1/dw_new
I0822 15:54:12.517146 13823 net.cpp:84] Creating Layer relu1_1/dw_new
I0822 15:54:12.517153 13823 net.cpp:406] relu1_1/dw_new <- conv1_1/dw_new
I0822 15:54:12.517161 13823 net.cpp:367] relu1_1/dw_new -> conv1_1/dw_new (in-place)
I0822 15:54:12.517170 13823 net.cpp:122] Setting up relu1_1/dw_new
I0822 15:54:12.517179 13823 net.cpp:129] Top shape: 64 64 28 28 (3211264)
I0822 15:54:12.517184 13823 net.cpp:137] Memory required for data: 317980160
I0822 15:54:12.517190 13823 layer_factory.hpp:77] Creating layer conv1_1/out/pw_new
I0822 15:54:12.517205 13823 net.cpp:84] Creating Layer conv1_1/out/pw_new
I0822 15:54:12.517213 13823 net.cpp:406] conv1_1/out/pw_new <- conv1_1/dw_new
I0822 15:54:12.517223 13823 net.cpp:380] conv1_1/out/pw_new -> conv1_1/out/pw_new
I0822 15:54:12.517565 13823 net.cpp:122] Setting up conv1_1/out/pw_new
I0822 15:54:12.517583 13823 net.cpp:129] Top shape: 64 24 28 28 (1204224)
I0822 15:54:12.517590 13823 net.cpp:137] Memory required for data: 322797056
I0822 15:54:12.517597 13823 layer_factory.hpp:77] Creating layer conv1_1/out/pw/bn_new
I0822 15:54:12.517609 13823 net.cpp:84] Creating Layer conv1_1/out/pw/bn_new
I0822 15:54:12.517616 13823 net.cpp:406] conv1_1/out/pw/bn_new <- conv1_1/out/pw_new
I0822 15:54:12.517626 13823 net.cpp:367] conv1_1/out/pw/bn_new -> conv1_1/out/pw_new (in-place)
I0822 15:54:12.517944 13823 net.cpp:122] Setting up conv1_1/out/pw/bn_new
I0822 15:54:12.517957 13823 net.cpp:129] Top shape: 64 24 28 28 (1204224)
I0822 15:54:12.517963 13823 net.cpp:137] Memory required for data: 327613952
I0822 15:54:12.517976 13823 layer_factory.hpp:77] Creating layer conv1_1/out/pw/scale_new
I0822 15:54:12.517987 13823 net.cpp:84] Creating Layer conv1_1/out/pw/scale_new
I0822 15:54:12.517993 13823 net.cpp:406] conv1_1/out/pw/scale_new <- conv1_1/out/pw_new
I0822 15:54:12.518002 13823 net.cpp:367] conv1_1/out/pw/scale_new -> conv1_1/out/pw_new (in-place)
I0822 15:54:12.518060 13823 layer_factory.hpp:77] Creating layer conv1_1/out/pw/scale_new
I0822 15:54:12.518245 13823 net.cpp:122] Setting up conv1_1/out/pw/scale_new
I0822 15:54:12.518261 13823 net.cpp:129] Top shape: 64 24 28 28 (1204224)
I0822 15:54:12.518266 13823 net.cpp:137] Memory required for data: 332430848
I0822 15:54:12.518278 13823 layer_factory.hpp:77] Creating layer conv1_1/out/pw_new_conv1_1/out/pw/scale_new_0_split
I0822 15:54:12.518296 13823 net.cpp:84] Creating Layer conv1_1/out/pw_new_conv1_1/out/pw/scale_new_0_split
I0822 15:54:12.518304 13823 net.cpp:406] conv1_1/out/pw_new_conv1_1/out/pw/scale_new_0_split <- conv1_1/out/pw_new
I0822 15:54:12.518316 13823 net.cpp:380] conv1_1/out/pw_new_conv1_1/out/pw/scale_new_0_split -> conv1_1/out/pw_new_conv1_1/out/pw/scale_new_0_split_0
I0822 15:54:12.518328 13823 net.cpp:380] conv1_1/out/pw_new_conv1_1/out/pw/scale_new_0_split -> conv1_1/out/pw_new_conv1_1/out/pw/scale_new_0_split_1
I0822 15:54:12.518385 13823 net.cpp:122] Setting up conv1_1/out/pw_new_conv1_1/out/pw/scale_new_0_split
I0822 15:54:12.518401 13823 net.cpp:129] Top shape: 64 24 28 28 (1204224)
I0822 15:54:12.518410 13823 net.cpp:129] Top shape: 64 24 28 28 (1204224)
I0822 15:54:12.518415 13823 net.cpp:137] Memory required for data: 342064640
I0822 15:54:12.518421 13823 layer_factory.hpp:77] Creating layer conv1_2/in/pw_new
I0822 15:54:12.518435 13823 net.cpp:84] Creating Layer conv1_2/in/pw_new
I0822 15:54:12.518445 13823 net.cpp:406] conv1_2/in/pw_new <- conv1_1/out/pw_new_conv1_1/out/pw/scale_new_0_split_0
I0822 15:54:12.518455 13823 net.cpp:380] conv1_2/in/pw_new -> conv1_2/in/pw_new
I0822 15:54:12.518832 13823 net.cpp:122] Setting up conv1_2/in/pw_new
I0822 15:54:12.518848 13823 net.cpp:129] Top shape: 64 144 28 28 (7225344)
I0822 15:54:12.518854 13823 net.cpp:137] Memory required for data: 370966016
I0822 15:54:12.518863 13823 layer_factory.hpp:77] Creating layer conv1_2/in/pw/bn_new
I0822 15:54:12.518874 13823 net.cpp:84] Creating Layer conv1_2/in/pw/bn_new
I0822 15:54:12.518882 13823 net.cpp:406] conv1_2/in/pw/bn_new <- conv1_2/in/pw_new
I0822 15:54:12.518891 13823 net.cpp:367] conv1_2/in/pw/bn_new -> conv1_2/in/pw_new (in-place)
I0822 15:54:12.519210 13823 net.cpp:122] Setting up conv1_2/in/pw/bn_new
I0822 15:54:12.519224 13823 net.cpp:129] Top shape: 64 144 28 28 (7225344)
I0822 15:54:12.519230 13823 net.cpp:137] Memory required for data: 399867392
I0822 15:54:12.519243 13823 layer_factory.hpp:77] Creating layer conv1_2/in/pw/scale_new
I0822 15:54:12.519254 13823 net.cpp:84] Creating Layer conv1_2/in/pw/scale_new
I0822 15:54:12.519261 13823 net.cpp:406] conv1_2/in/pw/scale_new <- conv1_2/in/pw_new
I0822 15:54:12.519270 13823 net.cpp:367] conv1_2/in/pw/scale_new -> conv1_2/in/pw_new (in-place)
I0822 15:54:12.519333 13823 layer_factory.hpp:77] Creating layer conv1_2/in/pw/scale_new
I0822 15:54:12.519522 13823 net.cpp:122] Setting up conv1_2/in/pw/scale_new
I0822 15:54:12.519536 13823 net.cpp:129] Top shape: 64 144 28 28 (7225344)
I0822 15:54:12.519542 13823 net.cpp:137] Memory required for data: 428768768
I0822 15:54:12.519554 13823 layer_factory.hpp:77] Creating layer relu1_2/in/pw_new
I0822 15:54:12.519563 13823 net.cpp:84] Creating Layer relu1_2/in/pw_new
I0822 15:54:12.519569 13823 net.cpp:406] relu1_2/in/pw_new <- conv1_2/in/pw_new
I0822 15:54:12.519578 13823 net.cpp:367] relu1_2/in/pw_new -> conv1_2/in/pw_new (in-place)
I0822 15:54:12.519588 13823 net.cpp:122] Setting up relu1_2/in/pw_new
I0822 15:54:12.519596 13823 net.cpp:129] Top shape: 64 144 28 28 (7225344)
I0822 15:54:12.519603 13823 net.cpp:137] Memory required for data: 457670144
I0822 15:54:12.519608 13823 layer_factory.hpp:77] Creating layer conv1_2/dw_new
I0822 15:54:12.519619 13823 net.cpp:84] Creating Layer conv1_2/dw_new
I0822 15:54:12.519625 13823 net.cpp:406] conv1_2/dw_new <- conv1_2/in/pw_new
I0822 15:54:12.519634 13823 net.cpp:380] conv1_2/dw_new -> conv1_2/dw_new
I0822 15:54:12.519851 13823 net.cpp:122] Setting up conv1_2/dw_new
I0822 15:54:12.519870 13823 net.cpp:129] Top shape: 64 144 28 28 (7225344)
I0822 15:54:12.519876 13823 net.cpp:137] Memory required for data: 486571520
I0822 15:54:12.519886 13823 layer_factory.hpp:77] Creating layer conv1_2/dw/bn_new
I0822 15:54:12.519897 13823 net.cpp:84] Creating Layer conv1_2/dw/bn_new
I0822 15:54:12.519904 13823 net.cpp:406] conv1_2/dw/bn_new <- conv1_2/dw_new
I0822 15:54:12.519914 13823 net.cpp:367] conv1_2/dw/bn_new -> conv1_2/dw_new (in-place)
I0822 15:54:12.520251 13823 net.cpp:122] Setting up conv1_2/dw/bn_new
I0822 15:54:12.520267 13823 net.cpp:129] Top shape: 64 144 28 28 (7225344)
I0822 15:54:12.520272 13823 net.cpp:137] Memory required for data: 515472896
I0822 15:54:12.520293 13823 layer_factory.hpp:77] Creating layer conv1_2/dw/scale_new
I0822 15:54:12.520308 13823 net.cpp:84] Creating Layer conv1_2/dw/scale_new
I0822 15:54:12.520315 13823 net.cpp:406] conv1_2/dw/scale_new <- conv1_2/dw_new
I0822 15:54:12.520324 13823 net.cpp:367] conv1_2/dw/scale_new -> conv1_2/dw_new (in-place)
I0822 15:54:12.520390 13823 layer_factory.hpp:77] Creating layer conv1_2/dw/scale_new
I0822 15:54:12.520581 13823 net.cpp:122] Setting up conv1_2/dw/scale_new
I0822 15:54:12.520596 13823 net.cpp:129] Top shape: 64 144 28 28 (7225344)
I0822 15:54:12.520601 13823 net.cpp:137] Memory required for data: 544374272
I0822 15:54:12.520613 13823 layer_factory.hpp:77] Creating layer relu1_2/dw_new
I0822 15:54:12.520624 13823 net.cpp:84] Creating Layer relu1_2/dw_new
I0822 15:54:12.520630 13823 net.cpp:406] relu1_2/dw_new <- conv1_2/dw_new
I0822 15:54:12.520639 13823 net.cpp:367] relu1_2/dw_new -> conv1_2/dw_new (in-place)
I0822 15:54:12.520649 13823 net.cpp:122] Setting up relu1_2/dw_new
I0822 15:54:12.520658 13823 net.cpp:129] Top shape: 64 144 28 28 (7225344)
I0822 15:54:12.520663 13823 net.cpp:137] Memory required for data: 573275648
I0822 15:54:12.520668 13823 layer_factory.hpp:77] Creating layer conv1_2/out/pw_new
I0822 15:54:12.520682 13823 net.cpp:84] Creating Layer conv1_2/out/pw_new
I0822 15:54:12.520692 13823 net.cpp:406] conv1_2/out/pw_new <- conv1_2/dw_new
I0822 15:54:12.520702 13823 net.cpp:380] conv1_2/out/pw_new -> conv1_2/out/pw_new
I0822 15:54:12.521088 13823 net.cpp:122] Setting up conv1_2/out/pw_new
I0822 15:54:12.521104 13823 net.cpp:129] Top shape: 64 24 28 28 (1204224)
I0822 15:54:12.521111 13823 net.cpp:137] Memory required for data: 578092544
I0822 15:54:12.521118 13823 layer_factory.hpp:77] Creating layer conv1_2/out/pw/bn_new
I0822 15:54:12.521129 13823 net.cpp:84] Creating Layer conv1_2/out/pw/bn_new
I0822 15:54:12.521136 13823 net.cpp:406] conv1_2/out/pw/bn_new <- conv1_2/out/pw_new
I0822 15:54:12.521145 13823 net.cpp:367] conv1_2/out/pw/bn_new -> conv1_2/out/pw_new (in-place)
I0822 15:54:12.521459 13823 net.cpp:122] Setting up conv1_2/out/pw/bn_new
I0822 15:54:12.521472 13823 net.cpp:129] Top shape: 64 24 28 28 (1204224)
I0822 15:54:12.521478 13823 net.cpp:137] Memory required for data: 582909440
I0822 15:54:12.521492 13823 layer_factory.hpp:77] Creating layer conv1_2/out/pw/scale_new
I0822 15:54:12.521502 13823 net.cpp:84] Creating Layer conv1_2/out/pw/scale_new
I0822 15:54:12.521508 13823 net.cpp:406] conv1_2/out/pw/scale_new <- conv1_2/out/pw_new
I0822 15:54:12.521517 13823 net.cpp:367] conv1_2/out/pw/scale_new -> conv1_2/out/pw_new (in-place)
I0822 15:54:12.521577 13823 layer_factory.hpp:77] Creating layer conv1_2/out/pw/scale_new
I0822 15:54:12.521761 13823 net.cpp:122] Setting up conv1_2/out/pw/scale_new
I0822 15:54:12.521775 13823 net.cpp:129] Top shape: 64 24 28 28 (1204224)
I0822 15:54:12.521781 13823 net.cpp:137] Memory required for data: 587726336
I0822 15:54:12.521792 13823 layer_factory.hpp:77] Creating layer fuse_conv1_2
I0822 15:54:12.521807 13823 net.cpp:84] Creating Layer fuse_conv1_2
I0822 15:54:12.521816 13823 net.cpp:406] fuse_conv1_2 <- conv1_1/out/pw_new_conv1_1/out/pw/scale_new_0_split_1
I0822 15:54:12.521824 13823 net.cpp:406] fuse_conv1_2 <- conv1_2/out/pw_new
I0822 15:54:12.521833 13823 net.cpp:380] fuse_conv1_2 -> fuse_conv1_2
I0822 15:54:12.521878 13823 net.cpp:122] Setting up fuse_conv1_2
I0822 15:54:12.521891 13823 net.cpp:129] Top shape: 64 24 28 28 (1204224)
I0822 15:54:12.521898 13823 net.cpp:137] Memory required for data: 592543232
I0822 15:54:12.521903 13823 layer_factory.hpp:77] Creating layer conv2_1/in/pw_new
I0822 15:54:12.521916 13823 net.cpp:84] Creating Layer conv2_1/in/pw_new
I0822 15:54:12.521925 13823 net.cpp:406] conv2_1/in/pw_new <- fuse_conv1_2
I0822 15:54:12.521936 13823 net.cpp:380] conv2_1/in/pw_new -> conv2_1/in/pw_new
I0822 15:54:12.522316 13823 net.cpp:122] Setting up conv2_1/in/pw_new
I0822 15:54:12.522332 13823 net.cpp:129] Top shape: 64 144 28 28 (7225344)
I0822 15:54:12.522338 13823 net.cpp:137] Memory required for data: 621444608
I0822 15:54:12.522347 13823 layer_factory.hpp:77] Creating layer conv2_1/in/pw/bn_new
I0822 15:54:12.522358 13823 net.cpp:84] Creating Layer conv2_1/in/pw/bn_new
I0822 15:54:12.522366 13823 net.cpp:406] conv2_1/in/pw/bn_new <- conv2_1/in/pw_new
I0822 15:54:12.522374 13823 net.cpp:367] conv2_1/in/pw/bn_new -> conv2_1/in/pw_new (in-place)
I0822 15:54:12.522691 13823 net.cpp:122] Setting up conv2_1/in/pw/bn_new
I0822 15:54:12.522703 13823 net.cpp:129] Top shape: 64 144 28 28 (7225344)
I0822 15:54:12.522709 13823 net.cpp:137] Memory required for data: 650345984
I0822 15:54:12.522722 13823 layer_factory.hpp:77] Creating layer conv2_1/in/pw/scale_new
I0822 15:54:12.522733 13823 net.cpp:84] Creating Layer conv2_1/in/pw/scale_new
I0822 15:54:12.522739 13823 net.cpp:406] conv2_1/in/pw/scale_new <- conv2_1/in/pw_new
I0822 15:54:12.522748 13823 net.cpp:367] conv2_1/in/pw/scale_new -> conv2_1/in/pw_new (in-place)
I0822 15:54:12.522811 13823 layer_factory.hpp:77] Creating layer conv2_1/in/pw/scale_new
I0822 15:54:12.523005 13823 net.cpp:122] Setting up conv2_1/in/pw/scale_new
I0822 15:54:12.523018 13823 net.cpp:129] Top shape: 64 144 28 28 (7225344)
I0822 15:54:12.523025 13823 net.cpp:137] Memory required for data: 679247360
I0822 15:54:12.523034 13823 layer_factory.hpp:77] Creating layer relu2_1/in/pw_new
I0822 15:54:12.523053 13823 net.cpp:84] Creating Layer relu2_1/in/pw_new
I0822 15:54:12.523062 13823 net.cpp:406] relu2_1/in/pw_new <- conv2_1/in/pw_new
I0822 15:54:12.523070 13823 net.cpp:367] relu2_1/in/pw_new -> conv2_1/in/pw_new (in-place)
I0822 15:54:12.523080 13823 net.cpp:122] Setting up relu2_1/in/pw_new
I0822 15:54:12.523089 13823 net.cpp:129] Top shape: 64 144 28 28 (7225344)
I0822 15:54:12.523094 13823 net.cpp:137] Memory required for data: 708148736
I0822 15:54:12.523100 13823 layer_factory.hpp:77] Creating layer conv2_1/dw_new
I0822 15:54:12.523111 13823 net.cpp:84] Creating Layer conv2_1/dw_new
I0822 15:54:12.523118 13823 net.cpp:406] conv2_1/dw_new <- conv2_1/in/pw_new
I0822 15:54:12.523128 13823 net.cpp:380] conv2_1/dw_new -> conv2_1/dw_new
I0822 15:54:12.523339 13823 net.cpp:122] Setting up conv2_1/dw_new
I0822 15:54:12.523357 13823 net.cpp:129] Top shape: 64 144 14 14 (1806336)
I0822 15:54:12.523363 13823 net.cpp:137] Memory required for data: 715374080
I0822 15:54:12.523372 13823 layer_factory.hpp:77] Creating layer conv2_1/dw/bn_new
I0822 15:54:12.523385 13823 net.cpp:84] Creating Layer conv2_1/dw/bn_new
I0822 15:54:12.523391 13823 net.cpp:406] conv2_1/dw/bn_new <- conv2_1/dw_new
I0822 15:54:12.523401 13823 net.cpp:367] conv2_1/dw/bn_new -> conv2_1/dw_new (in-place)
I0822 15:54:12.523735 13823 net.cpp:122] Setting up conv2_1/dw/bn_new
I0822 15:54:12.523748 13823 net.cpp:129] Top shape: 64 144 14 14 (1806336)
I0822 15:54:12.523753 13823 net.cpp:137] Memory required for data: 722599424
I0822 15:54:12.523766 13823 layer_factory.hpp:77] Creating layer conv2_1/dw/scale_new
I0822 15:54:12.523777 13823 net.cpp:84] Creating Layer conv2_1/dw/scale_new
I0822 15:54:12.523784 13823 net.cpp:406] conv2_1/dw/scale_new <- conv2_1/dw_new
I0822 15:54:12.523793 13823 net.cpp:367] conv2_1/dw/scale_new -> conv2_1/dw_new (in-place)
I0822 15:54:12.523854 13823 layer_factory.hpp:77] Creating layer conv2_1/dw/scale_new
I0822 15:54:12.524044 13823 net.cpp:122] Setting up conv2_1/dw/scale_new
I0822 15:54:12.524057 13823 net.cpp:129] Top shape: 64 144 14 14 (1806336)
I0822 15:54:12.524063 13823 net.cpp:137] Memory required for data: 729824768
I0822 15:54:12.524073 13823 layer_factory.hpp:77] Creating layer relu2_1/dw_new
I0822 15:54:12.524083 13823 net.cpp:84] Creating Layer relu2_1/dw_new
I0822 15:54:12.524089 13823 net.cpp:406] relu2_1/dw_new <- conv2_1/dw_new
I0822 15:54:12.524098 13823 net.cpp:367] relu2_1/dw_new -> conv2_1/dw_new (in-place)
I0822 15:54:12.524107 13823 net.cpp:122] Setting up relu2_1/dw_new
I0822 15:54:12.524118 13823 net.cpp:129] Top shape: 64 144 14 14 (1806336)
I0822 15:54:12.524123 13823 net.cpp:137] Memory required for data: 737050112
I0822 15:54:12.524129 13823 layer_factory.hpp:77] Creating layer conv2_1/out/pw_new
I0822 15:54:12.524157 13823 net.cpp:84] Creating Layer conv2_1/out/pw_new
I0822 15:54:12.524165 13823 net.cpp:406] conv2_1/out/pw_new <- conv2_1/dw_new
I0822 15:54:12.524176 13823 net.cpp:380] conv2_1/out/pw_new -> conv2_1/out/pw_new
I0822 15:54:12.524585 13823 net.cpp:122] Setting up conv2_1/out/pw_new
I0822 15:54:12.524601 13823 net.cpp:129] Top shape: 64 32 14 14 (401408)
I0822 15:54:12.524607 13823 net.cpp:137] Memory required for data: 738655744
I0822 15:54:12.524616 13823 layer_factory.hpp:77] Creating layer conv2_1/out/pw/bn_new
I0822 15:54:12.524627 13823 net.cpp:84] Creating Layer conv2_1/out/pw/bn_new
I0822 15:54:12.524634 13823 net.cpp:406] conv2_1/out/pw/bn_new <- conv2_1/out/pw_new
I0822 15:54:12.524644 13823 net.cpp:367] conv2_1/out/pw/bn_new -> conv2_1/out/pw_new (in-place)
I0822 15:54:12.524971 13823 net.cpp:122] Setting up conv2_1/out/pw/bn_new
I0822 15:54:12.524983 13823 net.cpp:129] Top shape: 64 32 14 14 (401408)
I0822 15:54:12.524989 13823 net.cpp:137] Memory required for data: 740261376
I0822 15:54:12.525002 13823 layer_factory.hpp:77] Creating layer conv2_1/out/pw/scale_new
I0822 15:54:12.525013 13823 net.cpp:84] Creating Layer conv2_1/out/pw/scale_new
I0822 15:54:12.525019 13823 net.cpp:406] conv2_1/out/pw/scale_new <- conv2_1/out/pw_new
I0822 15:54:12.525028 13823 net.cpp:367] conv2_1/out/pw/scale_new -> conv2_1/out/pw_new (in-place)
I0822 15:54:12.525089 13823 layer_factory.hpp:77] Creating layer conv2_1/out/pw/scale_new
I0822 15:54:12.525277 13823 net.cpp:122] Setting up conv2_1/out/pw/scale_new
I0822 15:54:12.525291 13823 net.cpp:129] Top shape: 64 32 14 14 (401408)
I0822 15:54:12.525298 13823 net.cpp:137] Memory required for data: 741867008
I0822 15:54:12.525308 13823 layer_factory.hpp:77] Creating layer conv2_1/out/pw_new_conv2_1/out/pw/scale_new_0_split
I0822 15:54:12.525319 13823 net.cpp:84] Creating Layer conv2_1/out/pw_new_conv2_1/out/pw/scale_new_0_split
I0822 15:54:12.525328 13823 net.cpp:406] conv2_1/out/pw_new_conv2_1/out/pw/scale_new_0_split <- conv2_1/out/pw_new
I0822 15:54:12.525338 13823 net.cpp:380] conv2_1/out/pw_new_conv2_1/out/pw/scale_new_0_split -> conv2_1/out/pw_new_conv2_1/out/pw/scale_new_0_split_0
I0822 15:54:12.525352 13823 net.cpp:380] conv2_1/out/pw_new_conv2_1/out/pw/scale_new_0_split -> conv2_1/out/pw_new_conv2_1/out/pw/scale_new_0_split_1
I0822 15:54:12.525422 13823 net.cpp:122] Setting up conv2_1/out/pw_new_conv2_1/out/pw/scale_new_0_split
I0822 15:54:12.525437 13823 net.cpp:129] Top shape: 64 32 14 14 (401408)
I0822 15:54:12.525446 13823 net.cpp:129] Top shape: 64 32 14 14 (401408)
I0822 15:54:12.525451 13823 net.cpp:137] Memory required for data: 745078272
I0822 15:54:12.525457 13823 layer_factory.hpp:77] Creating layer conv2_2/in/pw_new
I0822 15:54:12.525471 13823 net.cpp:84] Creating Layer conv2_2/in/pw_new
I0822 15:54:12.525481 13823 net.cpp:406] conv2_2/in/pw_new <- conv2_1/out/pw_new_conv2_1/out/pw/scale_new_0_split_0
I0822 15:54:12.525492 13823 net.cpp:380] conv2_2/in/pw_new -> conv2_2/in/pw_new
I0822 15:54:12.525924 13823 net.cpp:122] Setting up conv2_2/in/pw_new
I0822 15:54:12.525940 13823 net.cpp:129] Top shape: 64 192 14 14 (2408448)
I0822 15:54:12.525946 13823 net.cpp:137] Memory required for data: 754712064
I0822 15:54:12.525955 13823 layer_factory.hpp:77] Creating layer conv2_2/in/pw/bn_new
I0822 15:54:12.525966 13823 net.cpp:84] Creating Layer conv2_2/in/pw/bn_new
I0822 15:54:12.525974 13823 net.cpp:406] conv2_2/in/pw/bn_new <- conv2_2/in/pw_new
I0822 15:54:12.525982 13823 net.cpp:367] conv2_2/in/pw/bn_new -> conv2_2/in/pw_new (in-place)
I0822 15:54:12.526309 13823 net.cpp:122] Setting up conv2_2/in/pw/bn_new
I0822 15:54:12.526322 13823 net.cpp:129] Top shape: 64 192 14 14 (2408448)
I0822 15:54:12.526329 13823 net.cpp:137] Memory required for data: 764345856
I0822 15:54:12.526341 13823 layer_factory.hpp:77] Creating layer conv2_2/in/pw/scale_new
I0822 15:54:12.526351 13823 net.cpp:84] Creating Layer conv2_2/in/pw/scale_new
I0822 15:54:12.526358 13823 net.cpp:406] conv2_2/in/pw/scale_new <- conv2_2/in/pw_new
I0822 15:54:12.526367 13823 net.cpp:367] conv2_2/in/pw/scale_new -> conv2_2/in/pw_new (in-place)
I0822 15:54:12.526428 13823 layer_factory.hpp:77] Creating layer conv2_2/in/pw/scale_new
I0822 15:54:12.526621 13823 net.cpp:122] Setting up conv2_2/in/pw/scale_new
I0822 15:54:12.526636 13823 net.cpp:129] Top shape: 64 192 14 14 (2408448)
I0822 15:54:12.526643 13823 net.cpp:137] Memory required for data: 773979648
I0822 15:54:12.526664 13823 layer_factory.hpp:77] Creating layer relu2_2/in/pw_new
I0822 15:54:12.526676 13823 net.cpp:84] Creating Layer relu2_2/in/pw_new
I0822 15:54:12.526684 13823 net.cpp:406] relu2_2/in/pw_new <- conv2_2/in/pw_new
I0822 15:54:12.526692 13823 net.cpp:367] relu2_2/in/pw_new -> conv2_2/in/pw_new (in-place)
I0822 15:54:12.526702 13823 net.cpp:122] Setting up relu2_2/in/pw_new
I0822 15:54:12.526710 13823 net.cpp:129] Top shape: 64 192 14 14 (2408448)
I0822 15:54:12.526716 13823 net.cpp:137] Memory required for data: 783613440
I0822 15:54:12.526721 13823 layer_factory.hpp:77] Creating layer conv2_2/dw_new
I0822 15:54:12.526733 13823 net.cpp:84] Creating Layer conv2_2/dw_new
I0822 15:54:12.526739 13823 net.cpp:406] conv2_2/dw_new <- conv2_2/in/pw_new
I0822 15:54:12.526749 13823 net.cpp:380] conv2_2/dw_new -> conv2_2/dw_new
I0822 15:54:12.526971 13823 net.cpp:122] Setting up conv2_2/dw_new
I0822 15:54:12.526991 13823 net.cpp:129] Top shape: 64 192 14 14 (2408448)
I0822 15:54:12.527004 13823 net.cpp:137] Memory required for data: 793247232
I0822 15:54:12.527014 13823 layer_factory.hpp:77] Creating layer conv2_2/dw/bn_new
I0822 15:54:12.527026 13823 net.cpp:84] Creating Layer conv2_2/dw/bn_new
I0822 15:54:12.527034 13823 net.cpp:406] conv2_2/dw/bn_new <- conv2_2/dw_new
I0822 15:54:12.527042 13823 net.cpp:367] conv2_2/dw/bn_new -> conv2_2/dw_new (in-place)
I0822 15:54:12.527384 13823 net.cpp:122] Setting up conv2_2/dw/bn_new
I0822 15:54:12.527398 13823 net.cpp:129] Top shape: 64 192 14 14 (2408448)
I0822 15:54:12.527405 13823 net.cpp:137] Memory required for data: 802881024
I0822 15:54:12.527417 13823 layer_factory.hpp:77] Creating layer conv2_2/dw/scale_new
I0822 15:54:12.527428 13823 net.cpp:84] Creating Layer conv2_2/dw/scale_new
I0822 15:54:12.527436 13823 net.cpp:406] conv2_2/dw/scale_new <- conv2_2/dw_new
I0822 15:54:12.527443 13823 net.cpp:367] conv2_2/dw/scale_new -> conv2_2/dw_new (in-place)
I0822 15:54:12.527509 13823 layer_factory.hpp:77] Creating layer conv2_2/dw/scale_new
I0822 15:54:12.527695 13823 net.cpp:122] Setting up conv2_2/dw/scale_new
I0822 15:54:12.527710 13823 net.cpp:129] Top shape: 64 192 14 14 (2408448)
I0822 15:54:12.527716 13823 net.cpp:137] Memory required for data: 812514816
I0822 15:54:12.527726 13823 layer_factory.hpp:77] Creating layer relu2_2/dw_new
I0822 15:54:12.527736 13823 net.cpp:84] Creating Layer relu2_2/dw_new
I0822 15:54:12.527742 13823 net.cpp:406] relu2_2/dw_new <- conv2_2/dw_new
I0822 15:54:12.527750 13823 net.cpp:367] relu2_2/dw_new -> conv2_2/dw_new (in-place)
I0822 15:54:12.527760 13823 net.cpp:122] Setting up relu2_2/dw_new
I0822 15:54:12.527768 13823 net.cpp:129] Top shape: 64 192 14 14 (2408448)
I0822 15:54:12.527774 13823 net.cpp:137] Memory required for data: 822148608
I0822 15:54:12.527779 13823 layer_factory.hpp:77] Creating layer conv2_2/out/pw_new
I0822 15:54:12.527793 13823 net.cpp:84] Creating Layer conv2_2/out/pw_new
I0822 15:54:12.527799 13823 net.cpp:406] conv2_2/out/pw_new <- conv2_2/dw_new
I0822 15:54:12.527809 13823 net.cpp:380] conv2_2/out/pw_new -> conv2_2/out/pw_new
I0822 15:54:12.528266 13823 net.cpp:122] Setting up conv2_2/out/pw_new
I0822 15:54:12.528285 13823 net.cpp:129] Top shape: 64 32 14 14 (401408)
I0822 15:54:12.528290 13823 net.cpp:137] Memory required for data: 823754240
I0822 15:54:12.528298 13823 layer_factory.hpp:77] Creating layer conv2_2/out/pw/bn_new
I0822 15:54:12.528311 13823 net.cpp:84] Creating Layer conv2_2/out/pw/bn_new
I0822 15:54:12.528317 13823 net.cpp:406] conv2_2/out/pw/bn_new <- conv2_2/out/pw_new
I0822 15:54:12.528327 13823 net.cpp:367] conv2_2/out/pw/bn_new -> conv2_2/out/pw_new (in-place)
I0822 15:54:12.528659 13823 net.cpp:122] Setting up conv2_2/out/pw/bn_new
I0822 15:54:12.528672 13823 net.cpp:129] Top shape: 64 32 14 14 (401408)
I0822 15:54:12.528677 13823 net.cpp:137] Memory required for data: 825359872
I0822 15:54:12.528689 13823 layer_factory.hpp:77] Creating layer conv2_2/out/pw/scale_new
I0822 15:54:12.528700 13823 net.cpp:84] Creating Layer conv2_2/out/pw/scale_new
I0822 15:54:12.528707 13823 net.cpp:406] conv2_2/out/pw/scale_new <- conv2_2/out/pw_new
I0822 15:54:12.528714 13823 net.cpp:367] conv2_2/out/pw/scale_new -> conv2_2/out/pw_new (in-place)
I0822 15:54:12.528770 13823 layer_factory.hpp:77] Creating layer conv2_2/out/pw/scale_new
I0822 15:54:12.528957 13823 net.cpp:122] Setting up conv2_2/out/pw/scale_new
I0822 15:54:12.528972 13823 net.cpp:129] Top shape: 64 32 14 14 (401408)
I0822 15:54:12.528977 13823 net.cpp:137] Memory required for data: 826965504
I0822 15:54:12.528988 13823 layer_factory.hpp:77] Creating layer fuse_conv2_2
I0822 15:54:12.528998 13823 net.cpp:84] Creating Layer fuse_conv2_2
I0822 15:54:12.529004 13823 net.cpp:406] fuse_conv2_2 <- conv2_1/out/pw_new_conv2_1/out/pw/scale_new_0_split_1
I0822 15:54:12.529012 13823 net.cpp:406] fuse_conv2_2 <- conv2_2/out/pw_new
I0822 15:54:12.529021 13823 net.cpp:380] fuse_conv2_2 -> fuse_conv2_2
I0822 15:54:12.529058 13823 net.cpp:122] Setting up fuse_conv2_2
I0822 15:54:12.529073 13823 net.cpp:129] Top shape: 64 32 14 14 (401408)
I0822 15:54:12.529080 13823 net.cpp:137] Memory required for data: 828571136
I0822 15:54:12.529086 13823 layer_factory.hpp:77] Creating layer conv3_1/in/pw_new
I0822 15:54:12.529098 13823 net.cpp:84] Creating Layer conv3_1/in/pw_new
I0822 15:54:12.529108 13823 net.cpp:406] conv3_1/in/pw_new <- fuse_conv2_2
I0822 15:54:12.529116 13823 net.cpp:380] conv3_1/in/pw_new -> conv3_1/in/pw_new
I0822 15:54:12.529522 13823 net.cpp:122] Setting up conv3_1/in/pw_new
I0822 15:54:12.529536 13823 net.cpp:129] Top shape: 64 192 14 14 (2408448)
I0822 15:54:12.529542 13823 net.cpp:137] Memory required for data: 838204928
I0822 15:54:12.529551 13823 layer_factory.hpp:77] Creating layer conv3_1/in/pw/bn_new
I0822 15:54:12.529561 13823 net.cpp:84] Creating Layer conv3_1/in/pw/bn_new
I0822 15:54:12.529567 13823 net.cpp:406] conv3_1/in/pw/bn_new <- conv3_1/in/pw_new
I0822 15:54:12.529575 13823 net.cpp:367] conv3_1/in/pw/bn_new -> conv3_1/in/pw_new (in-place)
I0822 15:54:12.529877 13823 net.cpp:122] Setting up conv3_1/in/pw/bn_new
I0822 15:54:12.529889 13823 net.cpp:129] Top shape: 64 192 14 14 (2408448)
I0822 15:54:12.529896 13823 net.cpp:137] Memory required for data: 847838720
I0822 15:54:12.529907 13823 layer_factory.hpp:77] Creating layer conv3_1/in/pw/scale_new
I0822 15:54:12.529917 13823 net.cpp:84] Creating Layer conv3_1/in/pw/scale_new
I0822 15:54:12.529923 13823 net.cpp:406] conv3_1/in/pw/scale_new <- conv3_1/in/pw_new
I0822 15:54:12.529932 13823 net.cpp:367] conv3_1/in/pw/scale_new -> conv3_1/in/pw_new (in-place)
I0822 15:54:12.529991 13823 layer_factory.hpp:77] Creating layer conv3_1/in/pw/scale_new
I0822 15:54:12.530171 13823 net.cpp:122] Setting up conv3_1/in/pw/scale_new
I0822 15:54:12.530184 13823 net.cpp:129] Top shape: 64 192 14 14 (2408448)
I0822 15:54:12.530190 13823 net.cpp:137] Memory required for data: 857472512
I0822 15:54:12.530200 13823 layer_factory.hpp:77] Creating layer relu3_1/in/pw_new
I0822 15:54:12.530212 13823 net.cpp:84] Creating Layer relu3_1/in/pw_new
I0822 15:54:12.530218 13823 net.cpp:406] relu3_1/in/pw_new <- conv3_1/in/pw_new
I0822 15:54:12.530226 13823 net.cpp:367] relu3_1/in/pw_new -> conv3_1/in/pw_new (in-place)
I0822 15:54:12.530236 13823 net.cpp:122] Setting up relu3_1/in/pw_new
I0822 15:54:12.530243 13823 net.cpp:129] Top shape: 64 192 14 14 (2408448)
I0822 15:54:12.530248 13823 net.cpp:137] Memory required for data: 867106304
I0822 15:54:12.530253 13823 layer_factory.hpp:77] Creating layer conv3_1/dw_new
I0822 15:54:12.530264 13823 net.cpp:84] Creating Layer conv3_1/dw_new
I0822 15:54:12.530269 13823 net.cpp:406] conv3_1/dw_new <- conv3_1/in/pw_new
I0822 15:54:12.530278 13823 net.cpp:380] conv3_1/dw_new -> conv3_1/dw_new
I0822 15:54:12.530486 13823 net.cpp:122] Setting up conv3_1/dw_new
I0822 15:54:12.530505 13823 net.cpp:129] Top shape: 64 192 7 7 (602112)
I0822 15:54:12.530511 13823 net.cpp:137] Memory required for data: 869514752
I0822 15:54:12.530520 13823 layer_factory.hpp:77] Creating layer conv3_1/dw/bn_new
I0822 15:54:12.530531 13823 net.cpp:84] Creating Layer conv3_1/dw/bn_new
I0822 15:54:12.530537 13823 net.cpp:406] conv3_1/dw/bn_new <- conv3_1/dw_new
I0822 15:54:12.530547 13823 net.cpp:367] conv3_1/dw/bn_new -> conv3_1/dw_new (in-place)
I0822 15:54:12.530863 13823 net.cpp:122] Setting up conv3_1/dw/bn_new
I0822 15:54:12.530875 13823 net.cpp:129] Top shape: 64 192 7 7 (602112)
I0822 15:54:12.530881 13823 net.cpp:137] Memory required for data: 871923200
I0822 15:54:12.530894 13823 layer_factory.hpp:77] Creating layer conv3_1/dw/scale_new
I0822 15:54:12.530903 13823 net.cpp:84] Creating Layer conv3_1/dw/scale_new
I0822 15:54:12.530910 13823 net.cpp:406] conv3_1/dw/scale_new <- conv3_1/dw_new
I0822 15:54:12.530917 13823 net.cpp:367] conv3_1/dw/scale_new -> conv3_1/dw_new (in-place)
I0822 15:54:12.530975 13823 layer_factory.hpp:77] Creating layer conv3_1/dw/scale_new
I0822 15:54:12.531152 13823 net.cpp:122] Setting up conv3_1/dw/scale_new
I0822 15:54:12.531165 13823 net.cpp:129] Top shape: 64 192 7 7 (602112)
I0822 15:54:12.531170 13823 net.cpp:137] Memory required for data: 874331648
I0822 15:54:12.531181 13823 layer_factory.hpp:77] Creating layer relu3_1/dw_new
I0822 15:54:12.531189 13823 net.cpp:84] Creating Layer relu3_1/dw_new
I0822 15:54:12.531195 13823 net.cpp:406] relu3_1/dw_new <- conv3_1/dw_new
I0822 15:54:12.531203 13823 net.cpp:367] relu3_1/dw_new -> conv3_1/dw_new (in-place)
I0822 15:54:12.531213 13823 net.cpp:122] Setting up relu3_1/dw_new
I0822 15:54:12.531219 13823 net.cpp:129] Top shape: 64 192 7 7 (602112)
I0822 15:54:12.531225 13823 net.cpp:137] Memory required for data: 876740096
I0822 15:54:12.531230 13823 layer_factory.hpp:77] Creating layer conv3_1/out/pw_new
I0822 15:54:12.531242 13823 net.cpp:84] Creating Layer conv3_1/out/pw_new
I0822 15:54:12.531249 13823 net.cpp:406] conv3_1/out/pw_new <- conv3_1/dw_new
I0822 15:54:12.531257 13823 net.cpp:380] conv3_1/out/pw_new -> conv3_1/out/pw_new
I0822 15:54:12.531792 13823 net.cpp:122] Setting up conv3_1/out/pw_new
I0822 15:54:12.531808 13823 net.cpp:129] Top shape: 64 64 7 7 (200704)
I0822 15:54:12.531813 13823 net.cpp:137] Memory required for data: 877542912
I0822 15:54:12.531821 13823 layer_factory.hpp:77] Creating layer conv3_1/out/pw/bn_new
I0822 15:54:12.531832 13823 net.cpp:84] Creating Layer conv3_1/out/pw/bn_new
I0822 15:54:12.531838 13823 net.cpp:406] conv3_1/out/pw/bn_new <- conv3_1/out/pw_new
I0822 15:54:12.531847 13823 net.cpp:367] conv3_1/out/pw/bn_new -> conv3_1/out/pw_new (in-place)
I0822 15:54:12.532168 13823 net.cpp:122] Setting up conv3_1/out/pw/bn_new
I0822 15:54:12.532183 13823 net.cpp:129] Top shape: 64 64 7 7 (200704)
I0822 15:54:12.532188 13823 net.cpp:137] Memory required for data: 878345728
I0822 15:54:12.532202 13823 layer_factory.hpp:77] Creating layer conv3_1/out/pw/scale_new
I0822 15:54:12.532212 13823 net.cpp:84] Creating Layer conv3_1/out/pw/scale_new
I0822 15:54:12.532217 13823 net.cpp:406] conv3_1/out/pw/scale_new <- conv3_1/out/pw_new
I0822 15:54:12.532227 13823 net.cpp:367] conv3_1/out/pw/scale_new -> conv3_1/out/pw_new (in-place)
I0822 15:54:12.532284 13823 layer_factory.hpp:77] Creating layer conv3_1/out/pw/scale_new
I0822 15:54:12.532464 13823 net.cpp:122] Setting up conv3_1/out/pw/scale_new
I0822 15:54:12.532479 13823 net.cpp:129] Top shape: 64 64 7 7 (200704)
I0822 15:54:12.532483 13823 net.cpp:137] Memory required for data: 879148544
I0822 15:54:12.532495 13823 layer_factory.hpp:77] Creating layer conv3_1/out/pw_new_conv3_1/out/pw/scale_new_0_split
I0822 15:54:12.532521 13823 net.cpp:84] Creating Layer conv3_1/out/pw_new_conv3_1/out/pw/scale_new_0_split
I0822 15:54:12.532531 13823 net.cpp:406] conv3_1/out/pw_new_conv3_1/out/pw/scale_new_0_split <- conv3_1/out/pw_new
I0822 15:54:12.532539 13823 net.cpp:380] conv3_1/out/pw_new_conv3_1/out/pw/scale_new_0_split -> conv3_1/out/pw_new_conv3_1/out/pw/scale_new_0_split_0
I0822 15:54:12.532552 13823 net.cpp:380] conv3_1/out/pw_new_conv3_1/out/pw/scale_new_0_split -> conv3_1/out/pw_new_conv3_1/out/pw/scale_new_0_split_1
I0822 15:54:12.532613 13823 net.cpp:122] Setting up conv3_1/out/pw_new_conv3_1/out/pw/scale_new_0_split
I0822 15:54:12.532625 13823 net.cpp:129] Top shape: 64 64 7 7 (200704)
I0822 15:54:12.532634 13823 net.cpp:129] Top shape: 64 64 7 7 (200704)
I0822 15:54:12.532639 13823 net.cpp:137] Memory required for data: 880754176
I0822 15:54:12.532644 13823 layer_factory.hpp:77] Creating layer conv3_2/in/pw_new
I0822 15:54:12.532658 13823 net.cpp:84] Creating Layer conv3_2/in/pw_new
I0822 15:54:12.532665 13823 net.cpp:406] conv3_2/in/pw_new <- conv3_1/out/pw_new_conv3_1/out/pw/scale_new_0_split_0
I0822 15:54:12.532675 13823 net.cpp:380] conv3_2/in/pw_new -> conv3_2/in/pw_new
I0822 15:54:12.533210 13823 net.cpp:122] Setting up conv3_2/in/pw_new
I0822 15:54:12.533224 13823 net.cpp:129] Top shape: 64 192 7 7 (602112)
I0822 15:54:12.533231 13823 net.cpp:137] Memory required for data: 883162624
I0822 15:54:12.533238 13823 layer_factory.hpp:77] Creating layer conv3_2/in/pw/bn_new
I0822 15:54:12.533248 13823 net.cpp:84] Creating Layer conv3_2/in/pw/bn_new
I0822 15:54:12.533255 13823 net.cpp:406] conv3_2/in/pw/bn_new <- conv3_2/in/pw_new
I0822 15:54:12.533264 13823 net.cpp:367] conv3_2/in/pw/bn_new -> conv3_2/in/pw_new (in-place)
I0822 15:54:12.533567 13823 net.cpp:122] Setting up conv3_2/in/pw/bn_new
I0822 15:54:12.533581 13823 net.cpp:129] Top shape: 64 192 7 7 (602112)
I0822 15:54:12.533586 13823 net.cpp:137] Memory required for data: 885571072
I0822 15:54:12.533598 13823 layer_factory.hpp:77] Creating layer conv3_2/in/pw/scale_new
I0822 15:54:12.533608 13823 net.cpp:84] Creating Layer conv3_2/in/pw/scale_new
I0822 15:54:12.533615 13823 net.cpp:406] conv3_2/in/pw/scale_new <- conv3_2/in/pw_new
I0822 15:54:12.533623 13823 net.cpp:367] conv3_2/in/pw/scale_new -> conv3_2/in/pw_new (in-place)
I0822 15:54:12.533685 13823 layer_factory.hpp:77] Creating layer conv3_2/in/pw/scale_new
I0822 15:54:12.533866 13823 net.cpp:122] Setting up conv3_2/in/pw/scale_new
I0822 15:54:12.533880 13823 net.cpp:129] Top shape: 64 192 7 7 (602112)
I0822 15:54:12.533885 13823 net.cpp:137] Memory required for data: 887979520
I0822 15:54:12.533895 13823 layer_factory.hpp:77] Creating layer relu3_2/in/pw_new
I0822 15:54:12.533905 13823 net.cpp:84] Creating Layer relu3_2/in/pw_new
I0822 15:54:12.533910 13823 net.cpp:406] relu3_2/in/pw_new <- conv3_2/in/pw_new
I0822 15:54:12.533918 13823 net.cpp:367] relu3_2/in/pw_new -> conv3_2/in/pw_new (in-place)
I0822 15:54:12.533928 13823 net.cpp:122] Setting up relu3_2/in/pw_new
I0822 15:54:12.533936 13823 net.cpp:129] Top shape: 64 192 7 7 (602112)
I0822 15:54:12.533941 13823 net.cpp:137] Memory required for data: 890387968
I0822 15:54:12.533946 13823 layer_factory.hpp:77] Creating layer conv3_2/dw_new
I0822 15:54:12.533957 13823 net.cpp:84] Creating Layer conv3_2/dw_new
I0822 15:54:12.533963 13823 net.cpp:406] conv3_2/dw_new <- conv3_2/in/pw_new
I0822 15:54:12.533972 13823 net.cpp:380] conv3_2/dw_new -> conv3_2/dw_new
I0822 15:54:12.534191 13823 net.cpp:122] Setting up conv3_2/dw_new
I0822 15:54:12.534211 13823 net.cpp:129] Top shape: 64 192 7 7 (602112)
I0822 15:54:12.534217 13823 net.cpp:137] Memory required for data: 892796416
I0822 15:54:12.534226 13823 layer_factory.hpp:77] Creating layer conv3_2/dw/bn_new
I0822 15:54:12.534236 13823 net.cpp:84] Creating Layer conv3_2/dw/bn_new
I0822 15:54:12.534243 13823 net.cpp:406] conv3_2/dw/bn_new <- conv3_2/dw_new
I0822 15:54:12.534252 13823 net.cpp:367] conv3_2/dw/bn_new -> conv3_2/dw_new (in-place)
I0822 15:54:12.534574 13823 net.cpp:122] Setting up conv3_2/dw/bn_new
I0822 15:54:12.534586 13823 net.cpp:129] Top shape: 64 192 7 7 (602112)
I0822 15:54:12.534592 13823 net.cpp:137] Memory required for data: 895204864
I0822 15:54:12.534605 13823 layer_factory.hpp:77] Creating layer conv3_2/dw/scale_new
I0822 15:54:12.534615 13823 net.cpp:84] Creating Layer conv3_2/dw/scale_new
I0822 15:54:12.534621 13823 net.cpp:406] conv3_2/dw/scale_new <- conv3_2/dw_new
I0822 15:54:12.534629 13823 net.cpp:367] conv3_2/dw/scale_new -> conv3_2/dw_new (in-place)
I0822 15:54:12.534685 13823 layer_factory.hpp:77] Creating layer conv3_2/dw/scale_new
I0822 15:54:12.534869 13823 net.cpp:122] Setting up conv3_2/dw/scale_new
I0822 15:54:12.534883 13823 net.cpp:129] Top shape: 64 192 7 7 (602112)
I0822 15:54:12.534889 13823 net.cpp:137] Memory required for data: 897613312
I0822 15:54:12.534899 13823 layer_factory.hpp:77] Creating layer relu3_2/dw_new
I0822 15:54:12.534910 13823 net.cpp:84] Creating Layer relu3_2/dw_new
I0822 15:54:12.534916 13823 net.cpp:406] relu3_2/dw_new <- conv3_2/dw_new
I0822 15:54:12.534924 13823 net.cpp:367] relu3_2/dw_new -> conv3_2/dw_new (in-place)
I0822 15:54:12.534934 13823 net.cpp:122] Setting up relu3_2/dw_new
I0822 15:54:12.534941 13823 net.cpp:129] Top shape: 64 192 7 7 (602112)
I0822 15:54:12.534946 13823 net.cpp:137] Memory required for data: 900021760
I0822 15:54:12.534951 13823 layer_factory.hpp:77] Creating layer conv3_2/out/pw_new
I0822 15:54:12.534965 13823 net.cpp:84] Creating Layer conv3_2/out/pw_new
I0822 15:54:12.534970 13823 net.cpp:406] conv3_2/out/pw_new <- conv3_2/dw_new
I0822 15:54:12.534979 13823 net.cpp:380] conv3_2/out/pw_new -> conv3_2/out/pw_new
I0822 15:54:12.535521 13823 net.cpp:122] Setting up conv3_2/out/pw_new
I0822 15:54:12.535535 13823 net.cpp:129] Top shape: 64 64 7 7 (200704)
I0822 15:54:12.535542 13823 net.cpp:137] Memory required for data: 900824576
I0822 15:54:12.535549 13823 layer_factory.hpp:77] Creating layer conv3_2/out/pw/bn_new
I0822 15:54:12.535559 13823 net.cpp:84] Creating Layer conv3_2/out/pw/bn_new
I0822 15:54:12.535565 13823 net.cpp:406] conv3_2/out/pw/bn_new <- conv3_2/out/pw_new
I0822 15:54:12.535575 13823 net.cpp:367] conv3_2/out/pw/bn_new -> conv3_2/out/pw_new (in-place)
I0822 15:54:12.535892 13823 net.cpp:122] Setting up conv3_2/out/pw/bn_new
I0822 15:54:12.535903 13823 net.cpp:129] Top shape: 64 64 7 7 (200704)
I0822 15:54:12.535909 13823 net.cpp:137] Memory required for data: 901627392
I0822 15:54:12.535921 13823 layer_factory.hpp:77] Creating layer conv3_2/out/pw/scale_new
I0822 15:54:12.535931 13823 net.cpp:84] Creating Layer conv3_2/out/pw/scale_new
I0822 15:54:12.535938 13823 net.cpp:406] conv3_2/out/pw/scale_new <- conv3_2/out/pw_new
I0822 15:54:12.535948 13823 net.cpp:367] conv3_2/out/pw/scale_new -> conv3_2/out/pw_new (in-place)
I0822 15:54:12.536006 13823 layer_factory.hpp:77] Creating layer conv3_2/out/pw/scale_new
I0822 15:54:12.536203 13823 net.cpp:122] Setting up conv3_2/out/pw/scale_new
I0822 15:54:12.536219 13823 net.cpp:129] Top shape: 64 64 7 7 (200704)
I0822 15:54:12.536226 13823 net.cpp:137] Memory required for data: 902430208
I0822 15:54:12.536236 13823 layer_factory.hpp:77] Creating layer fuse_conv3_2
I0822 15:54:12.536247 13823 net.cpp:84] Creating Layer fuse_conv3_2
I0822 15:54:12.536252 13823 net.cpp:406] fuse_conv3_2 <- conv3_1/out/pw_new_conv3_1/out/pw/scale_new_0_split_1
I0822 15:54:12.536260 13823 net.cpp:406] fuse_conv3_2 <- conv3_2/out/pw_new
I0822 15:54:12.536270 13823 net.cpp:380] fuse_conv3_2 -> fuse_conv3_2
I0822 15:54:12.536307 13823 net.cpp:122] Setting up fuse_conv3_2
I0822 15:54:12.536320 13823 net.cpp:129] Top shape: 64 64 7 7 (200704)
I0822 15:54:12.536325 13823 net.cpp:137] Memory required for data: 903233024
I0822 15:54:12.536331 13823 layer_factory.hpp:77] Creating layer fc1
I0822 15:54:12.536343 13823 net.cpp:84] Creating Layer fc1
I0822 15:54:12.536350 13823 net.cpp:406] fc1 <- fuse_conv3_2
I0822 15:54:12.536358 13823 net.cpp:380] fc1 -> fc1
I0822 15:54:12.568445 13823 net.cpp:122] Setting up fc1
I0822 15:54:12.568478 13823 net.cpp:129] Top shape: 64 512 (32768)
I0822 15:54:12.568483 13823 net.cpp:137] Memory required for data: 903364096
I0822 15:54:12.568497 13823 layer_factory.hpp:77] Creating layer relu_fc1
I0822 15:54:12.568511 13823 net.cpp:84] Creating Layer relu_fc1
I0822 15:54:12.568517 13823 net.cpp:406] relu_fc1 <- fc1
I0822 15:54:12.568526 13823 net.cpp:367] relu_fc1 -> fc1 (in-place)
I0822 15:54:12.568539 13823 net.cpp:122] Setting up relu_fc1
I0822 15:54:12.568548 13823 net.cpp:129] Top shape: 64 512 (32768)
I0822 15:54:12.568552 13823 net.cpp:137] Memory required for data: 903495168
I0822 15:54:12.568557 13823 layer_factory.hpp:77] Creating layer drop_fc1
I0822 15:54:12.568567 13823 net.cpp:84] Creating Layer drop_fc1
I0822 15:54:12.568570 13823 net.cpp:406] drop_fc1 <- fc1
I0822 15:54:12.568578 13823 net.cpp:367] drop_fc1 -> fc1 (in-place)
I0822 15:54:12.568615 13823 net.cpp:122] Setting up drop_fc1
I0822 15:54:12.568625 13823 net.cpp:129] Top shape: 64 512 (32768)
I0822 15:54:12.568632 13823 net.cpp:137] Memory required for data: 903626240
I0822 15:54:12.568637 13823 layer_factory.hpp:77] Creating layer landmark_pred
I0822 15:54:12.568650 13823 net.cpp:84] Creating Layer landmark_pred
I0822 15:54:12.568656 13823 net.cpp:406] landmark_pred <- fc1
I0822 15:54:12.568663 13823 net.cpp:380] landmark_pred -> landmark_pred
I0822 15:54:12.570950 13823 net.cpp:122] Setting up landmark_pred
I0822 15:54:12.570964 13823 net.cpp:129] Top shape: 64 254 (16256)
I0822 15:54:12.570969 13823 net.cpp:137] Memory required for data: 903691264
I0822 15:54:12.570977 13823 layer_factory.hpp:77] Creating layer landmark_loss
I0822 15:54:12.570986 13823 net.cpp:84] Creating Layer landmark_loss
I0822 15:54:12.570991 13823 net.cpp:406] landmark_loss <- landmark_pred
I0822 15:54:12.570998 13823 net.cpp:406] landmark_loss <- label
I0822 15:54:12.571007 13823 net.cpp:380] landmark_loss -> landmark_loss
…
