…
I0820 09:43:49.449048 12052 solver.cpp:102] Creating training net from net file: ./M3_train_test_h5.prototxt
I0820 09:43:49.449316 12052 net.cpp:294] The NetState phase (0) differed from the phase (1) specified by a rule in layer data
I0820 09:43:49.449450 12052 net.cpp:51] Initializing net from parameters: 
name: "MobileNet-V2"
state {
  phase: TRAIN
  level: 0
  stage: ""
}
layer {
  name: "data"
  type: "HDF5Data"
  top: "data"
  top: "label"
  include {
    phase: TRAIN
  }
  hdf5_data_param {
    source: "/home/sxdz/data/landmark/98/train_hdf5/112/train_hdf5.txt"
    batch_size: 64
    shuffle: true
  }
}
layer {
  name: "conv1"
  type: "Convolution"
  bottom: "data"
  top: "conv1"
  param {
    lr_mult: 1
    decay_mult: 1
  }
  param {
    lr_mult: 2
    decay_mult: 1
  }
  convolution_param {
    num_output: 32
    kernel_size: 3
    stride: 1
    weight_filler {
      type: "xavier"
    }
    bias_filler {
      type: "constant"
      value: 0
    }
  }
}
layer {
  name: "prelu1"
  type: "PReLU"
  bottom: "conv1"
  top: "conv1"
}
layer {
  name: "pool1"
  type: "Pooling"
  bottom: "conv1"
  top: "pool1"
  pooling_param {
    pool: MAX
    kernel_size: 3
    stride: 2
  }
}
layer {
  name: "conv2"
  type: "Convolution"
  bottom: "pool1"
  top: "conv2"
  param {
    lr_mult: 1
    decay_mult: 1
  }
  param {
    lr_mult: 2
    decay_mult: 1
  }
  convolution_param {
    num_output: 64
    kernel_size: 3
    stride: 1
    weight_filler {
      type: "xavier"
    }
    bias_filler {
      type: "constant"
      value: 0
    }
  }
}
layer {
  name: "prelu2"
  type: "PReLU"
  bottom: "conv2"
  top: "conv2"
}
layer {
  name: "pool2"
  type: "Pooling"
  bottom: "conv2"
  top: "pool2"
  pooling_param {
    pool: MAX
    kernel_size: 3
    stride: 2
  }
}
layer {
  name: "conv3"
  type: "Convolution"
  bottom: "pool2"
  top: "conv3"
  param {
    lr_mult: 1
    decay_mult: 1
  }
  param {
    lr_mult: 2
    decay_mult: 1
  }
  convolution_param {
    num_output: 64
    kernel_size: 3
    weight_filler {
      type: "xavier"
    }
    bias_filler {
      type: "constant"
      value: 0
    }
  }
}
layer {
  name: "prelu3"
  type: "PReLU"
  bottom: "conv3"
  top: "conv3"
}
layer {
  name: "pool3"
  type: "Pooling"
  bottom: "conv3"
  top: "pool3"
  pooling_param {
    pool: MAX
    kernel_size: 2
    stride: 2
  }
}
layer {
  name: "conv4"
  type: "Convolution"
  bottom: "pool3"
  top: "conv4"
  param {
    lr_mult: 1
    decay_mult: 1
  }
  param {
    lr_mult: 2
    decay_mult: 1
  }
  convolution_param {
    num_output: 128
    kernel_size: 2
    weight_filler {
      type: "xavier"
    }
    bias_filler {
      type: "constant"
      value: 0
    }
  }
}
layer {
  name: "prelu4"
  type: "PReLU"
  bottom: "conv4"
  top: "conv4"
}
layer {
  name: "conv5"
  type: "InnerProduct"
  bottom: "conv4"
  top: "conv5"
  param {
    lr_mult: 1
    decay_mult: 1
  }
  param {
    lr_mult: 2
    decay_mult: 1
  }
  inner_product_param {
    num_output: 256
    weight_filler {
      type: "xavier"
    }
    bias_filler {
      type: "constant"
      value: 0
    }
  }
}
layer {
  name: "drop5"
  type: "Dropout"
  bottom: "conv5"
  top: "conv5"
  dropout_param {
    dropout_ratio: 0.25
  }
}
layer {
  name: "prelu5"
  type: "PReLU"
  bottom: "conv5"
  top: "conv5"
}
layer {
  name: "landmark_pred"
  type: "InnerProduct"
  bottom: "conv5"
  top: "landmark_pred"
  param {
    lr_mult: 1
    decay_mult: 1
  }
  param {
    lr_mult: 2
    decay_mult: 1
  }
  inner_product_param {
    num_output: 196
    weight_filler {
      type: "xavier"
    }
    bias_filler {
      type: "constant"
      value: 0
    }
  }
}
layer {
  name: "landmark_loss"
  type: "EuclideanLoss"
  bottom: "landmark_pred"
  bottom: "label"
  top: "landmark_loss"
  loss_weight: 1
}
I0820 09:43:49.449534 12052 layer_factory.hpp:77] Creating layer data
I0820 09:43:49.449549 12052 net.cpp:84] Creating Layer data
I0820 09:43:49.449555 12052 net.cpp:380] data -> data
I0820 09:43:49.449579 12052 net.cpp:380] data -> label
I0820 09:43:49.449589 12052 hdf5_data_layer.cpp:80] Loading list of HDF5 filenames from: /home/sxdz/data/landmark/98/train_hdf5/112/train_hdf5.txt
I0820 09:43:49.452069 12052 hdf5_data_layer.cpp:94] Number of HDF5 files: 5625
I0820 09:43:49.453276 12052 hdf5.cpp:32] Datatype class: H5T_FLOAT
I0820 09:43:49.454675 12052 net.cpp:122] Setting up data
I0820 09:43:49.454694 12052 net.cpp:129] Top shape: 64 3 112 112 (2408448)
I0820 09:43:49.454700 12052 net.cpp:129] Top shape: 64 196 (12544)
I0820 09:43:49.454704 12052 net.cpp:137] Memory required for data: 9683968
I0820 09:43:49.454708 12052 layer_factory.hpp:77] Creating layer conv1
I0820 09:43:49.454725 12052 net.cpp:84] Creating Layer conv1
I0820 09:43:49.454730 12052 net.cpp:406] conv1 <- data
I0820 09:43:49.454741 12052 net.cpp:380] conv1 -> conv1
I0820 09:43:49.455343 12052 net.cpp:122] Setting up conv1
I0820 09:43:49.455355 12052 net.cpp:129] Top shape: 64 32 110 110 (24780800)
I0820 09:43:49.455358 12052 net.cpp:137] Memory required for data: 108807168
I0820 09:43:49.455374 12052 layer_factory.hpp:77] Creating layer prelu1
I0820 09:43:49.455380 12052 net.cpp:84] Creating Layer prelu1
I0820 09:43:49.455384 12052 net.cpp:406] prelu1 <- conv1
I0820 09:43:49.455389 12052 net.cpp:367] prelu1 -> conv1 (in-place)
I0820 09:43:49.456569 12052 net.cpp:122] Setting up prelu1
I0820 09:43:49.456586 12052 net.cpp:129] Top shape: 64 32 110 110 (24780800)
I0820 09:43:49.456590 12052 net.cpp:137] Memory required for data: 207930368
I0820 09:43:49.456598 12052 layer_factory.hpp:77] Creating layer pool1
I0820 09:43:49.456605 12052 net.cpp:84] Creating Layer pool1
I0820 09:43:49.456609 12052 net.cpp:406] pool1 <- conv1
I0820 09:43:49.456614 12052 net.cpp:380] pool1 -> pool1
I0820 09:43:49.456660 12052 net.cpp:122] Setting up pool1
I0820 09:43:49.456668 12052 net.cpp:129] Top shape: 64 32 55 55 (6195200)
I0820 09:43:49.456672 12052 net.cpp:137] Memory required for data: 232711168
I0820 09:43:49.456676 12052 layer_factory.hpp:77] Creating layer conv2
I0820 09:43:49.456686 12052 net.cpp:84] Creating Layer conv2
I0820 09:43:49.456688 12052 net.cpp:406] conv2 <- pool1
I0820 09:43:49.456694 12052 net.cpp:380] conv2 -> conv2
I0820 09:43:49.457007 12052 net.cpp:122] Setting up conv2
I0820 09:43:49.457017 12052 net.cpp:129] Top shape: 64 64 53 53 (11505664)
I0820 09:43:49.457021 12052 net.cpp:137] Memory required for data: 278733824
I0820 09:43:49.457028 12052 layer_factory.hpp:77] Creating layer prelu2
I0820 09:43:49.457034 12052 net.cpp:84] Creating Layer prelu2
I0820 09:43:49.457037 12052 net.cpp:406] prelu2 <- conv2
I0820 09:43:49.457042 12052 net.cpp:367] prelu2 -> conv2 (in-place)
I0820 09:43:49.457244 12052 net.cpp:122] Setting up prelu2
I0820 09:43:49.457255 12052 net.cpp:129] Top shape: 64 64 53 53 (11505664)
I0820 09:43:49.457258 12052 net.cpp:137] Memory required for data: 324756480
I0820 09:43:49.457263 12052 layer_factory.hpp:77] Creating layer pool2
I0820 09:43:49.457268 12052 net.cpp:84] Creating Layer pool2
I0820 09:43:49.457271 12052 net.cpp:406] pool2 <- conv2
I0820 09:43:49.457276 12052 net.cpp:380] pool2 -> pool2
I0820 09:43:49.457309 12052 net.cpp:122] Setting up pool2
I0820 09:43:49.457316 12052 net.cpp:129] Top shape: 64 64 26 26 (2768896)
I0820 09:43:49.457320 12052 net.cpp:137] Memory required for data: 335832064
I0820 09:43:49.457324 12052 layer_factory.hpp:77] Creating layer conv3
I0820 09:43:49.457330 12052 net.cpp:84] Creating Layer conv3
I0820 09:43:49.457334 12052 net.cpp:406] conv3 <- pool2
I0820 09:43:49.457340 12052 net.cpp:380] conv3 -> conv3
I0820 09:43:49.457775 12052 net.cpp:122] Setting up conv3
I0820 09:43:49.457784 12052 net.cpp:129] Top shape: 64 64 24 24 (2359296)
I0820 09:43:49.457787 12052 net.cpp:137] Memory required for data: 345269248
I0820 09:43:49.457793 12052 layer_factory.hpp:77] Creating layer prelu3
I0820 09:43:49.457799 12052 net.cpp:84] Creating Layer prelu3
I0820 09:43:49.457803 12052 net.cpp:406] prelu3 <- conv3
I0820 09:43:49.457808 12052 net.cpp:367] prelu3 -> conv3 (in-place)
I0820 09:43:49.457902 12052 net.cpp:122] Setting up prelu3
I0820 09:43:49.457912 12052 net.cpp:129] Top shape: 64 64 24 24 (2359296)
I0820 09:43:49.457916 12052 net.cpp:137] Memory required for data: 354706432
I0820 09:43:49.457922 12052 layer_factory.hpp:77] Creating layer pool3
I0820 09:43:49.457927 12052 net.cpp:84] Creating Layer pool3
I0820 09:43:49.457931 12052 net.cpp:406] pool3 <- conv3
I0820 09:43:49.457935 12052 net.cpp:380] pool3 -> pool3
I0820 09:43:49.457967 12052 net.cpp:122] Setting up pool3
I0820 09:43:49.457975 12052 net.cpp:129] Top shape: 64 64 12 12 (589824)
I0820 09:43:49.457978 12052 net.cpp:137] Memory required for data: 357065728
I0820 09:43:49.457981 12052 layer_factory.hpp:77] Creating layer conv4
I0820 09:43:49.457988 12052 net.cpp:84] Creating Layer conv4
I0820 09:43:49.457991 12052 net.cpp:406] conv4 <- pool3
I0820 09:43:49.457998 12052 net.cpp:380] conv4 -> conv4
I0820 09:43:49.458397 12052 net.cpp:122] Setting up conv4
I0820 09:43:49.458406 12052 net.cpp:129] Top shape: 64 128 11 11 (991232)
I0820 09:43:49.458410 12052 net.cpp:137] Memory required for data: 361030656
I0820 09:43:49.458415 12052 layer_factory.hpp:77] Creating layer prelu4
I0820 09:43:49.458420 12052 net.cpp:84] Creating Layer prelu4
I0820 09:43:49.458423 12052 net.cpp:406] prelu4 <- conv4
I0820 09:43:49.458428 12052 net.cpp:367] prelu4 -> conv4 (in-place)
I0820 09:43:49.458515 12052 net.cpp:122] Setting up prelu4
I0820 09:43:49.458524 12052 net.cpp:129] Top shape: 64 128 11 11 (991232)
I0820 09:43:49.458528 12052 net.cpp:137] Memory required for data: 364995584
I0820 09:43:49.458532 12052 layer_factory.hpp:77] Creating layer conv5
I0820 09:43:49.458539 12052 net.cpp:84] Creating Layer conv5
I0820 09:43:49.458542 12052 net.cpp:406] conv5 <- conv4
I0820 09:43:49.458547 12052 net.cpp:380] conv5 -> conv5
I0820 09:43:49.488348 12052 net.cpp:122] Setting up conv5
I0820 09:43:49.488365 12052 net.cpp:129] Top shape: 64 256 (16384)
I0820 09:43:49.488369 12052 net.cpp:137] Memory required for data: 365061120
I0820 09:43:49.488376 12052 layer_factory.hpp:77] Creating layer drop5
I0820 09:43:49.488384 12052 net.cpp:84] Creating Layer drop5
I0820 09:43:49.488387 12052 net.cpp:406] drop5 <- conv5
I0820 09:43:49.488392 12052 net.cpp:367] drop5 -> conv5 (in-place)
I0820 09:43:49.488420 12052 net.cpp:122] Setting up drop5
I0820 09:43:49.488425 12052 net.cpp:129] Top shape: 64 256 (16384)
I0820 09:43:49.488428 12052 net.cpp:137] Memory required for data: 365126656
I0820 09:43:49.488431 12052 layer_factory.hpp:77] Creating layer prelu5
I0820 09:43:49.488436 12052 net.cpp:84] Creating Layer prelu5
I0820 09:43:49.488440 12052 net.cpp:406] prelu5 <- conv5
I0820 09:43:49.488443 12052 net.cpp:367] prelu5 -> conv5 (in-place)
I0820 09:43:49.488510 12052 net.cpp:122] Setting up prelu5
I0820 09:43:49.488518 12052 net.cpp:129] Top shape: 64 256 (16384)
I0820 09:43:49.488521 12052 net.cpp:137] Memory required for data: 365192192
I0820 09:43:49.488526 12052 layer_factory.hpp:77] Creating layer landmark_pred
I0820 09:43:49.488533 12052 net.cpp:84] Creating Layer landmark_pred
I0820 09:43:49.488536 12052 net.cpp:406] landmark_pred <- conv5
I0820 09:43:49.488541 12052 net.cpp:380] landmark_pred -> landmark_pred
I0820 09:43:49.489768 12052 net.cpp:122] Setting up landmark_pred
I0820 09:43:49.489784 12052 net.cpp:129] Top shape: 64 196 (12544)
I0820 09:43:49.489786 12052 net.cpp:137] Memory required for data: 365242368
I0820 09:43:49.489796 12052 layer_factory.hpp:77] Creating layer landmark_loss
I0820 09:43:49.489805 12052 net.cpp:84] Creating Layer landmark_loss
I0820 09:43:49.489809 12052 net.cpp:406] landmark_loss <- landmark_pred
I0820 09:43:49.489814 12052 net.cpp:406] landmark_loss <- label
I0820 09:43:49.489820 12052 net.cpp:380] landmark_loss -> landmark_loss
…
